…
ds', '/project/foster/clouds/geotfr/7_of_8.tfrecords', '/project/foster/clouds/geotfr/8_of_8.tfrecords']
	model_dir:            out/m6/
	batch_size:           32
	optimizer:            adam
	loss:                 mean_squared_error
	steps_per_epoch:      1000
	epochs:               200
	new_model:            None
	shape:                (64, 64, 7)
Loading existing model
_________________________________________________________________
Layer (type)                 Output Shape              Param #   
=================================================================
ae_input (InputLayer)        (None, 64, 64, 7)         0         
_________________________________________________________________
conv2d (Conv2D)              (None, 64, 64, 32)        2048      
_________________________________________________________________
conv2d_1 (Conv2D)            (None, 32, 32, 32)        9248      
_________________________________________________________________
conv2d_2 (Conv2D)            (None, 32, 32, 64)        18496     
_________________________________________________________________
conv2d_3 (Conv2D)            (None, 16, 16, 64)        36928     
_________________________________________________________________
conv2d_4 (Conv2D)            (None, 16, 16, 128)       73856     
_________________________________________________________________
conv2d_5 (Conv2D)            (None, 8, 8, 128)         147584    
_________________________________________________________________
conv2d_6 (Conv2D)            (None, 8, 8, 128)         147584    
_________________________________________________________________
conv2d_transpose (Conv2DTran (None, 16, 16, 128)       147584    
_________________________________________________________________
conv2d_7 (Conv2D)            (None, 16, 16, 64)        73792     
_________________________________________________________________
conv2d_transpose_1 (Conv2DTr (None, 32, 32, 64)        36928     
_________________________________________________________________
conv2d_8 (Conv2D)            (None, 32, 32, 32)        18464     
_________________________________________________________________
conv2d_transpose_2 (Conv2DTr (None, 64, 64, 32)        9248      
_________________________________________________________________
conv2d_9 (Conv2D)            (None, 64, 64, 7)         2023      
=================================================================
Total params: 723,783
Trainable params: 723,783
Non-trainable params: 0
_________________________________________________________________
Epoch 1/200
 - 71s - loss: 7716296.5849 - mean_absolute_error: 2183.9720 - mean_squared_error: 7716296.5705
Epoch 2/200
 - 62s - loss: 7124999.9230 - mean_absolute_error: 2146.4351 - mean_squared_error: 7124999.9025
…
