Tensorflow version: 1.9.0
Current Git Commit: b'b3615fe'
Flags:
	data:                 foo.tif
	model_dir:            out/m4/
	batch_size:           32
	optimizer:            adam
	loss:                 mean_squared_error
	steps_per_epoch:      1000
	epochs:               10
	new_model:            dilated_ae
	shape:                (64, 64, 7)
Loading existing model
_________________________________________________________________
Layer (type)                 Output Shape              Param #   
=================================================================
ae_input (InputLayer)        (None, 64, 64, 7)         0         
_________________________________________________________________
conv2d (Conv2D)              (None, 64, 64, 16)        1024      
_________________________________________________________________
conv2d_1 (Conv2D)            (None, 64, 64, 32)        4640      
_________________________________________________________________
conv2d_2 (Conv2D)            (None, 64, 64, 64)        18496     
_________________________________________________________________
conv2d_transpose (Conv2DTran (None, 64, 64, 128)       73856     
_________________________________________________________________
conv2d_transpose_1 (Conv2DTr (None, 64, 64, 64)        73792     
_________________________________________________________________
conv2d_transpose_2 (Conv2DTr (None, 64, 64, 32)        18464     
_________________________________________________________________
conv2d_transpose_3 (Conv2DTr (None, 64, 64, 16)        4624      
_________________________________________________________________
conv2d_3 (Conv2D)            (None, 64, 64, 7)         1015      
=================================================================
Total params: 195,911
Trainable params: 195,911
Non-trainable params: 0
_________________________________________________________________
Epoch 1/10
 - 245s - loss: 4463949.0154 - mean_absolute_error: 1668.9424
Epoch 2/10
 - 236s - loss: 4391875.4259 - mean_absolute_error: 1647.4822
Epoch 3/10
 - 229s - loss: 4446075.5506 - mean_absolute_error: 1662.9256
…
