node {
  name: "ae_input"
  op: "Placeholder"
  attr {
    key: "dtype"
    value {
      type: DT_FLOAT
    }
  }
  attr {
    key: "shape"
    value {
      shape {
        dim {
          size: -1
        }
        dim {
          size: 64
        }
        dim {
          size: 64
        }
        dim {
          size: 7
        }
      }
    }
  }
}
node {
  name: "conv2d/kernel/Initializer/random_uniform/shape"
  op: "Const"
  attr {
    key: "_class"
    value {
      list {
        s: "loc:@conv2d/kernel"
      }
    }
  }
  attr {
    key: "dtype"
    value {
      type: DT_INT32
    }
  }
  attr {
    key: "value"
    value {
      tensor {
        dtype: DT_INT32
        tensor_shape {
          dim {
            size: 4
          }
        }
        tensor_content: "\003\000\000\000\003\000\000\000\007\000\000\000\020\000\000\000"
      }
    }
  }
}
node {
  name: "conv2d/kernel/Initializer/random_uniform/min"
  op: "Const"
  attr {
    key: "_class"
    value {
      list {
        s: "loc:@conv2d/kernel"
      }
    }
  }
  attr {
    key: "dtype"
    value {
      type: DT_FLOAT
    }
  }
  attr {
    key: "value"
    value {
      tensor {
        dtype: DT_FLOAT
        tensor_shape {
        }
        float_val: -0.17025130987167358
      }
    }
  }
}
node {
  name: "conv2d/kernel/Initializer/random_uniform/max"
  op: "Const"
  attr {
    key: "_class"
    value {
      list {
        s: "loc:@conv2d/kernel"
      }
    }
  }
  attr {
    key: "dtype"
    value {
      type: DT_FLOAT
    }
  }
  attr {
    key: "value"
    value {
      tensor {
        dtype: DT_FLOAT
        tensor_shape {
        }
        float_val: 0.17025130987167358
      }
    }
  }
}
node {
  name: "conv2d/kernel/Initializer/random_uniform/RandomUniform"
  op: "RandomUniform"
  input: "conv2d/kernel/Initializer/random_uniform/shape"
  attr {
    key: "T"
    value {
      type: DT_INT32
    }
  }
  attr {
    key: "_class"
    value {
      list {
        s: "loc:@conv2d/kernel"
      }
    }
  }
  attr {
    key: "dtype"
    value {
      type: DT_FLOAT
    }
  }
  attr {
    key: "seed"
    value {
      i: 0
    }
  }
  attr {
    key: "seed2"
    value {
      i: 0
    }
  }
}
node {
  name: "conv2d/kernel/Initializer/random_uniform/sub"
  op: "Sub"
  input: "conv2d/kernel/Initializer/random_uniform/max"
  input: "conv2d/kernel/Initializer/random_uniform/min"
  attr {
    key: "T"
    value {
      type: DT_FLOAT
    }
  }
  attr {
    key: "_class"
    value {
      list {
        s: "loc:@conv2d/kernel"
      }
    }
  }
}
node {
  name: "conv2d/kernel/Initializer/random_uniform/mul"
  op: "Mul"
  input: "conv2d/kernel/Initializer/random_uniform/RandomUniform"
  input: "conv2d/kernel/Initializer/random_uniform/sub"
  attr {
    key: "T"
    value {
      type: DT_FLOAT
    }
  }
  attr {
    key: "_class"
    value {
      list {
        s: "loc:@conv2d/kernel"
      }
    }
  }
}
node {
  name: "conv2d/kernel/Initializer/random_uniform"
  op: "Add"
  input: "conv2d/kernel/Initializer/random_uniform/mul"
  input: "conv2d/kernel/Initializer/random_uniform/min"
  attr {
    key: "T"
    value {
      type: DT_FLOAT
    }
  }
  attr {
    key: "_class"
    value {
      list {
        s: "loc:@conv2d/kernel"
      }
    }
  }
}
node {
  name: "conv2d/kernel"
  op: "VarHandleOp"
  attr {
    key: "_class"
    value {
      list {
        s: "loc:@conv2d/kernel"
      }
    }
  }
  attr {
    key: "container"
    value {
      s: ""
    }
  }
  attr {
    key: "dtype"
    value {
      type: DT_FLOAT
    }
  }
  attr {
    key: "shape"
    value {
      shape {
        dim {
          size: 3
        }
        dim {
          size: 3
        }
        dim {
          size: 7
        }
        dim {
          size: 16
        }
      }
    }
  }
  attr {
    key: "shared_name"
    value {
      s: "conv2d/kernel"
    }
  }
}
node {
  name: "conv2d/kernel/IsInitialized/VarIsInitializedOp"
  op: "VarIsInitializedOp"
  input: "conv2d/kernel"
}
node {
  name: "conv2d/kernel/Assign"
  op: "AssignVariableOp"
  input: "conv2d/kernel"
  input: "conv2d/kernel/Initializer/random_uniform"
  attr {
    key: "_class"
    value {
      list {
        s: "loc:@conv2d/kernel"
      }
    }
  }
  attr {
    key: "dtype"
    value {
      type: DT_FLOAT
    }
  }
}
node {
  name: "conv2d/kernel/Read/ReadVariableOp"
  op: "ReadVariableOp"
  input: "conv2d/kernel"
  attr {
    key: "_class"
    value {
      list {
        s: "loc:@conv2d/kernel"
      }
    }
  }
  attr {
    key: "dtype"
    value {
      type: DT_FLOAT
    }
  }
}
node {
  name: "conv2d/bias/Initializer/zeros"
  op: "Const"
  attr {
    key: "_class"
    value {
      list {
        s: "loc:@conv2d/bias"
      }
    }
  }
  attr {
    key: "dtype"
    value {
      type: DT_FLOAT
    }
  }
  attr {
    key: "value"
    value {
      tensor {
        dtype: DT_FLOAT
        tensor_shape {
          dim {
            size: 16
          }
        }
        float_val: 0.0
      }
    }
  }
}
node {
  name: "conv2d/bias"
  op: "VarHandleOp"
  attr {
    key: "_class"
    value {
      list {
        s: "loc:@conv2d/bias"
      }
    }
  }
  attr {
    key: "container"
    value {
      s: ""
    }
  }
  attr {
    key: "dtype"
    value {
      type: DT_FLOAT
    }
  }
  attr {
    key: "shape"
    value {
      shape {
        dim {
          size: 16
        }
      }
    }
  }
  attr {
    key: "shared_name"
    value {
      s: "conv2d/bias"
    }
  }
}
node {
  name: "conv2d/bias/IsInitialized/VarIsInitializedOp"
  op: "VarIsInitializedOp"
  input: "conv2d/bias"
}
node {
  name: "conv2d/bias/Assign"
  op: "AssignVariableOp"
  input: "conv2d/bias"
  input: "conv2d/bias/Initializer/zeros"
  attr {
    key: "_class"
    value {
      list {
        s: "loc:@conv2d/bias"
      }
    }
  }
  attr {
    key: "dtype"
    value {
      type: DT_FLOAT
    }
  }
}
node {
  name: "conv2d/bias/Read/ReadVariableOp"
  op: "ReadVariableOp"
  input: "conv2d/bias"
  attr {
    key: "_class"
    value {
      list {
        s: "loc:@conv2d/bias"
      }
    }
  }
  attr {
    key: "dtype"
    value {
      type: DT_FLOAT
    }
  }
}
node {
  name: "conv2d/dilation_rate"
  op: "Const"
  attr {
    key: "dtype"
    value {
      type: DT_INT32
    }
  }
  attr {
    key: "value"
    value {
      tensor {
        dtype: DT_INT32
        tensor_shape {
          dim {
            size: 2
          }
        }
        tensor_content: "\001\000\000\000\001\000\000\000"
      }
    }
  }
}
node {
  name: "conv2d/Conv2D/ReadVariableOp"
  op: "ReadVariableOp"
  input: "conv2d/kernel"
  attr {
    key: "dtype"
    value {
      type: DT_FLOAT
    }
  }
}
node {
  name: "conv2d/Conv2D"
  op: "Conv2D"
  input: "ae_input"
  input: "conv2d/Conv2D/ReadVariableOp"
  attr {
    key: "T"
    value {
      type: DT_FLOAT
    }
  }
  attr {
    key: "data_format"
    value {
      s: "NHWC"
    }
  }
  attr {
    key: "dilations"
    value {
      list {
        i: 1
        i: 1
        i: 1
        i: 1
      }
    }
  }
  attr {
    key: "padding"
    value {
      s: "SAME"
    }
  }
  attr {
    key: "strides"
    value {
      list {
        i: 1
        i: 1
        i: 1
        i: 1
      }
    }
  }
  attr {
    key: "use_cudnn_on_gpu"
    value {
      b: true
    }
  }
}
node {
  name: "conv2d/BiasAdd/ReadVariableOp"
  op: "ReadVariableOp"
  input: "conv2d/bias"
  attr {
    key: "dtype"
    value {
      type: DT_FLOAT
    }
  }
}
node {
  name: "conv2d/BiasAdd"
  op: "BiasAdd"
  input: "conv2d/Conv2D"
  input: "conv2d/BiasAdd/ReadVariableOp"
  attr {
    key: "T"
    value {
      type: DT_FLOAT
    }
  }
  attr {
    key: "data_format"
    value {
      s: "NHWC"
    }
  }
}
node {
  name: "conv2d/Relu"
  op: "Relu"
  input: "conv2d/BiasAdd"
  attr {
    key: "T"
    value {
      type: DT_FLOAT
    }
  }
}
node {
  name: "conv2d_1/kernel/Initializer/random_uniform/shape"
  op: "Const"
  attr {
    key: "_class"
    value {
      list {
        s: "loc:@conv2d_1/kernel"
      }
    }
  }
  attr {
    key: "dtype"
    value {
      type: DT_INT32
    }
  }
  attr {
    key: "value"
    value {
      tensor {
        dtype: DT_INT32
        tensor_shape {
          dim {
            size: 4
          }
        }
        tensor_content: "\003\000\000\000\003\000\000\000\020\000\000\000 \000\000\000"
      }
    }
  }
}
node {
  name: "conv2d_1/kernel/Initializer/random_uniform/min"
  op: "Const"
  attr {
    key: "_class"
    value {
      list {
        s: "loc:@conv2d_1/kernel"
      }
    }
  }
  attr {
    key: "dtype"
    value {
      type: DT_FLOAT
    }
  }
  attr {
    key: "value"
    value {
      tensor {
        dtype: DT_FLOAT
        tensor_shape {
        }
        float_val: -0.1178511306643486
      }
    }
  }
}
node {
  name: "conv2d_1/kernel/Initializer/random_uniform/max"
  op: "Const"
  attr {
    key: "_class"
    value {
      list {
        s: "loc:@conv2d_1/kernel"
      }
    }
  }
  attr {
    key: "dtype"
    value {
      type: DT_FLOAT
    }
  }
  attr {
    key: "value"
    value {
      tensor {
        dtype: DT_FLOAT
        tensor_shape {
        }
        float_val: 0.1178511306643486
      }
    }
  }
}
node {
  name: "conv2d_1/kernel/Initializer/random_uniform/RandomUniform"
  op: "RandomUniform"
  input: "conv2d_1/kernel/Initializer/random_uniform/shape"
  attr {
    key: "T"
    value {
      type: DT_INT32
    }
  }
  attr {
    key: "_class"
    value {
      list {
        s: "loc:@conv2d_1/kernel"
      }
    }
  }
  attr {
    key: "dtype"
    value {
      type: DT_FLOAT
    }
  }
  attr {
    key: "seed"
    value {
      i: 0
    }
  }
  attr {
    key: "seed2"
    value {
      i: 0
    }
  }
}
node {
  name: "conv2d_1/kernel/Initializer/random_uniform/sub"
  op: "Sub"
  input: "conv2d_1/kernel/Initializer/random_uniform/max"
  input: "conv2d_1/kernel/Initializer/random_uniform/min"
  attr {
    key: "T"
    value {
      type: DT_FLOAT
    }
  }
  attr {
    key: "_class"
    value {
      list {
        s: "loc:@conv2d_1/kernel"
      }
    }
  }
}
node {
  name: "conv2d_1/kernel/Initializer/random_uniform/mul"
  op: "Mul"
  input: "conv2d_1/kernel/Initializer/random_uniform/RandomUniform"
  input: "conv2d_1/kernel/Initializer/random_uniform/sub"
  attr {
    key: "T"
    value {
      type: DT_FLOAT
    }
  }
  attr {
    key: "_class"
    value {
      list {
        s: "loc:@conv2d_1/kernel"
      }
    }
  }
}
node {
  name: "conv2d_1/kernel/Initializer/random_uniform"
  op: "Add"
  input: "conv2d_1/kernel/Initializer/random_uniform/mul"
  input: "conv2d_1/kernel/Initializer/random_uniform/min"
  attr {
    key: "T"
    value {
      type: DT_FLOAT
    }
  }
  attr {
    key: "_class"
    value {
      list {
        s: "loc:@conv2d_1/kernel"
      }
    }
  }
}
node {
  name: "conv2d_1/kernel"
  op: "VarHandleOp"
  attr {
    key: "_class"
    value {
      list {
        s: "loc:@conv2d_1/kernel"
      }
    }
  }
  attr {
    key: "container"
    value {
      s: ""
    }
  }
  attr {
    key: "dtype"
    value {
      type: DT_FLOAT
    }
  }
  attr {
    key: "shape"
    value {
      shape {
        dim {
          size: 3
        }
        dim {
          size: 3
        }
        dim {
          size: 16
        }
        dim {
          size: 32
        }
      }
    }
  }
  attr {
    key: "shared_name"
    value {
      s: "conv2d_1/kernel"
    }
  }
}
node {
  name: "conv2d_1/kernel/IsInitialized/VarIsInitializedOp"
  op: "VarIsInitializedOp"
  input: "conv2d_1/kernel"
}
node {
  name: "conv2d_1/kernel/Assign"
  op: "AssignVariableOp"
  input: "conv2d_1/kernel"
  input: "conv2d_1/kernel/Initializer/random_uniform"
  attr {
    key: "_class"
    value {
      list {
        s: "loc:@conv2d_1/kernel"
      }
    }
  }
  attr {
    key: "dtype"
    value {
      type: DT_FLOAT
    }
  }
}
node {
  name: "conv2d_1/kernel/Read/ReadVariableOp"
  op: "ReadVariableOp"
  input: "conv2d_1/kernel"
  attr {
    key: "_class"
    value {
      list {
        s: "loc:@conv2d_1/kernel"
      }
    }
  }
  attr {
    key: "dtype"
    value {
      type: DT_FLOAT
    }
  }
}
node {
  name: "conv2d_1/bias/Initializer/zeros"
  op: "Const"
  attr {
    key: "_class"
    value {
      list {
        s: "loc:@conv2d_1/bias"
      }
    }
  }
  attr {
    key: "dtype"
    value {
      type: DT_FLOAT
    }
  }
  attr {
    key: "value"
    value {
      tensor {
        dtype: DT_FLOAT
        tensor_shape {
          dim {
            size: 32
          }
        }
        float_val: 0.0
      }
    }
  }
}
node {
  name: "conv2d_1/bias"
  op: "VarHandleOp"
  attr {
    key: "_class"
    value {
      list {
        s: "loc:@conv2d_1/bias"
      }
    }
  }
  attr {
    key: "container"
    value {
      s: ""
    }
  }
  attr {
    key: "dtype"
    value {
      type: DT_FLOAT
    }
  }
  attr {
    key: "shape"
    value {
      shape {
        dim {
          size: 32
        }
      }
    }
  }
  attr {
    key: "shared_name"
    value {
      s: "conv2d_1/bias"
    }
  }
}
node {
  name: "conv2d_1/bias/IsInitialized/VarIsInitializedOp"
  op: "VarIsInitializedOp"
  input: "conv2d_1/bias"
}
node {
  name: "conv2d_1/bias/Assign"
  op: "AssignVariableOp"
  input: "conv2d_1/bias"
  input: "conv2d_1/bias/Initializer/zeros"
  attr {
    key: "_class"
    value {
      list {
        s: "loc:@conv2d_1/bias"
      }
    }
  }
  attr {
    key: "dtype"
    value {
      type: DT_FLOAT
    }
  }
}
node {
  name: "conv2d_1/bias/Read/ReadVariableOp"
  op: "ReadVariableOp"
  input: "conv2d_1/bias"
  attr {
    key: "_class"
    value {
      list {
        s: "loc:@conv2d_1/bias"
      }
    }
  }
  attr {
    key: "dtype"
    value {
      type: DT_FLOAT
    }
  }
}
node {
  name: "conv2d_1/dilation_rate"
  op: "Const"
  attr {
    key: "dtype"
    value {
      type: DT_INT32
    }
  }
  attr {
    key: "value"
    value {
      tensor {
        dtype: DT_INT32
        tensor_shape {
          dim {
            size: 2
          }
        }
        tensor_content: "\002\000\000\000\002\000\000\000"
      }
    }
  }
}
node {
  name: "conv2d_1/filter_shape"
  op: "Const"
  attr {
    key: "dtype"
    value {
      type: DT_INT32
    }
  }
  attr {
    key: "value"
    value {
      tensor {
        dtype: DT_INT32
        tensor_shape {
          dim {
            size: 4
          }
        }
        tensor_content: "\003\000\000\000\003\000\000\000\020\000\000\000 \000\000\000"
      }
    }
  }
}
node {
  name: "conv2d_1/stack"
  op: "Const"
  attr {
    key: "dtype"
    value {
      type: DT_INT32
    }
  }
  attr {
    key: "value"
    value {
      tensor {
        dtype: DT_INT32
        tensor_shape {
          dim {
            size: 2
          }
          dim {
            size: 2
          }
        }
        tensor_content: "\002\000\000\000\002\000\000\000\002\000\000\000\002\000\000\000"
      }
    }
  }
}
node {
  name: "conv2d_1/required_space_to_batch_paddings/input_shape"
  op: "Const"
  attr {
    key: "dtype"
    value {
      type: DT_INT32
    }
  }
  attr {
    key: "value"
    value {
      tensor {
        dtype: DT_INT32
        tensor_shape {
          dim {
            size: 2
          }
        }
        tensor_content: "@\000\000\000@\000\000\000"
      }
    }
  }
}
node {
  name: "conv2d_1/required_space_to_batch_paddings/paddings"
  op: "Const"
  attr {
    key: "dtype"
    value {
      type: DT_INT32
    }
  }
  attr {
    key: "value"
    value {
      tensor {
        dtype: DT_INT32
        tensor_shape {
          dim {
            size: 2
          }
          dim {
            size: 2
          }
        }
        tensor_content: "\002\000\000\000\002\000\000\000\002\000\000\000\002\000\000\000"
      }
    }
  }
}
node {
  name: "conv2d_1/required_space_to_batch_paddings/crops"
  op: "Const"
  attr {
    key: "dtype"
    value {
      type: DT_INT32
    }
  }
  attr {
    key: "value"
    value {
      tensor {
        dtype: DT_INT32
        tensor_shape {
          dim {
            size: 2
          }
          dim {
            size: 2
          }
        }
        tensor_content: "\000\000\000\000\000\000\000\000\000\000\000\000\000\000\000\000"
      }
    }
  }
}
node {
  name: "conv2d_1/SpaceToBatchND/block_shape"
  op: "Const"
  attr {
    key: "dtype"
    value {
      type: DT_INT32
    }
  }
  attr {
    key: "value"
    value {
      tensor {
        dtype: DT_INT32
        tensor_shape {
          dim {
            size: 2
          }
        }
        tensor_content: "\002\000\000\000\002\000\000\000"
      }
    }
  }
}
node {
  name: "conv2d_1/SpaceToBatchND/paddings"
  op: "Const"
  attr {
    key: "dtype"
    value {
      type: DT_INT32
    }
  }
  attr {
    key: "value"
    value {
      tensor {
        dtype: DT_INT32
        tensor_shape {
          dim {
            size: 2
          }
          dim {
            size: 2
          }
        }
        tensor_content: "\002\000\000\000\002\000\000\000\002\000\000\000\002\000\000\000"
      }
    }
  }
}
node {
  name: "conv2d_1/SpaceToBatchND"
  op: "SpaceToBatchND"
  input: "conv2d/Relu"
  input: "conv2d_1/SpaceToBatchND/block_shape"
  input: "conv2d_1/SpaceToBatchND/paddings"
  attr {
    key: "T"
    value {
      type: DT_FLOAT
    }
  }
  attr {
    key: "Tblock_shape"
    value {
      type: DT_INT32
    }
  }
  attr {
    key: "Tpaddings"
    value {
      type: DT_INT32
    }
  }
}
node {
  name: "conv2d_1/Conv2D/ReadVariableOp"
  op: "ReadVariableOp"
  input: "conv2d_1/kernel"
  attr {
    key: "dtype"
    value {
      type: DT_FLOAT
    }
  }
}
node {
  name: "conv2d_1/Conv2D"
  op: "Conv2D"
  input: "conv2d_1/SpaceToBatchND"
  input: "conv2d_1/Conv2D/ReadVariableOp"
  attr {
    key: "T"
    value {
      type: DT_FLOAT
    }
  }
  attr {
    key: "data_format"
    value {
      s: "NHWC"
    }
  }
  attr {
    key: "dilations"
    value {
      list {
        i: 1
        i: 1
        i: 1
        i: 1
      }
    }
  }
  attr {
    key: "padding"
    value {
      s: "VALID"
    }
  }
  attr {
    key: "strides"
    value {
      list {
        i: 1
        i: 1
        i: 1
        i: 1
      }
    }
  }
  attr {
    key: "use_cudnn_on_gpu"
    value {
      b: true
    }
  }
}
node {
  name: "conv2d_1/BatchToSpaceND/block_shape"
  op: "Const"
  attr {
    key: "dtype"
    value {
      type: DT_INT32
    }
  }
  attr {
    key: "value"
    value {
      tensor {
        dtype: DT_INT32
        tensor_shape {
          dim {
            size: 2
          }
        }
        tensor_content: "\002\000\000\000\002\000\000\000"
      }
    }
  }
}
node {
  name: "conv2d_1/BatchToSpaceND/crops"
  op: "Const"
  attr {
    key: "dtype"
    value {
      type: DT_INT32
    }
  }
  attr {
    key: "value"
    value {
      tensor {
        dtype: DT_INT32
        tensor_shape {
          dim {
            size: 2
          }
          dim {
            size: 2
          }
        }
        tensor_content: "\000\000\000\000\000\000\000\000\000\000\000\000\000\000\000\000"
      }
    }
  }
}
node {
  name: "conv2d_1/BatchToSpaceND"
  op: "BatchToSpaceND"
  input: "conv2d_1/Conv2D"
  input: "conv2d_1/BatchToSpaceND/block_shape"
  input: "conv2d_1/BatchToSpaceND/crops"
  attr {
    key: "T"
    value {
      type: DT_FLOAT
    }
  }
  attr {
    key: "Tblock_shape"
    value {
      type: DT_INT32
    }
  }
  attr {
    key: "Tcrops"
    value {
      type: DT_INT32
    }
  }
}
node {
  name: "conv2d_1/BiasAdd/ReadVariableOp"
  op: "ReadVariableOp"
  input: "conv2d_1/bias"
  attr {
    key: "dtype"
    value {
      type: DT_FLOAT
    }
  }
}
node {
  name: "conv2d_1/BiasAdd"
  op: "BiasAdd"
  input: "conv2d_1/BatchToSpaceND"
  input: "conv2d_1/BiasAdd/ReadVariableOp"
  attr {
    key: "T"
    value {
      type: DT_FLOAT
    }
  }
  attr {
    key: "data_format"
    value {
      s: "NHWC"
    }
  }
}
node {
  name: "conv2d_1/Relu"
  op: "Relu"
  input: "conv2d_1/BiasAdd"
  attr {
    key: "T"
    value {
      type: DT_FLOAT
    }
  }
}
node {
  name: "conv2d_2/kernel/Initializer/random_uniform/shape"
  op: "Const"
  attr {
    key: "_class"
    value {
      list {
        s: "loc:@conv2d_2/kernel"
      }
    }
  }
  attr {
    key: "dtype"
    value {
      type: DT_INT32
    }
  }
  attr {
    key: "value"
    value {
      tensor {
        dtype: DT_INT32
        tensor_shape {
          dim {
            size: 4
          }
        }
        tensor_content: "\003\000\000\000\003\000\000\000 \000\000\000@\000\000\000"
      }
    }
  }
}
node {
  name: "conv2d_2/kernel/Initializer/random_uniform/min"
  op: "Const"
  attr {
    key: "_class"
    value {
      list {
        s: "loc:@conv2d_2/kernel"
      }
    }
  }
  attr {
    key: "dtype"
    value {
      type: DT_FLOAT
    }
  }
  attr {
    key: "value"
    value {
      tensor {
        dtype: DT_FLOAT
        tensor_shape {
        }
        float_val: -0.0833333358168602
      }
    }
  }
}
node {
  name: "conv2d_2/kernel/Initializer/random_uniform/max"
  op: "Const"
  attr {
    key: "_class"
    value {
      list {
        s: "loc:@conv2d_2/kernel"
      }
    }
  }
  attr {
    key: "dtype"
    value {
      type: DT_FLOAT
    }
  }
  attr {
    key: "value"
    value {
      tensor {
        dtype: DT_FLOAT
        tensor_shape {
        }
        float_val: 0.0833333358168602
      }
    }
  }
}
node {
  name: "conv2d_2/kernel/Initializer/random_uniform/RandomUniform"
  op: "RandomUniform"
  input: "conv2d_2/kernel/Initializer/random_uniform/shape"
  attr {
    key: "T"
    value {
      type: DT_INT32
    }
  }
  attr {
    key: "_class"
    value {
      list {
        s: "loc:@conv2d_2/kernel"
      }
    }
  }
  attr {
    key: "dtype"
    value {
      type: DT_FLOAT
    }
  }
  attr {
    key: "seed"
    value {
      i: 0
    }
  }
  attr {
    key: "seed2"
    value {
      i: 0
    }
  }
}
node {
  name: "conv2d_2/kernel/Initializer/random_uniform/sub"
  op: "Sub"
  input: "conv2d_2/kernel/Initializer/random_uniform/max"
  input: "conv2d_2/kernel/Initializer/random_uniform/min"
  attr {
    key: "T"
    value {
      type: DT_FLOAT
    }
  }
  attr {
    key: "_class"
    value {
      list {
        s: "loc:@conv2d_2/kernel"
      }
    }
  }
}
node {
  name: "conv2d_2/kernel/Initializer/random_uniform/mul"
  op: "Mul"
  input: "conv2d_2/kernel/Initializer/random_uniform/RandomUniform"
  input: "conv2d_2/kernel/Initializer/random_uniform/sub"
  attr {
    key: "T"
    value {
      type: DT_FLOAT
    }
  }
  attr {
    key: "_class"
    value {
      list {
        s: "loc:@conv2d_2/kernel"
      }
    }
  }
}
node {
  name: "conv2d_2/kernel/Initializer/random_uniform"
  op: "Add"
  input: "conv2d_2/kernel/Initializer/random_uniform/mul"
  input: "conv2d_2/kernel/Initializer/random_uniform/min"
  attr {
    key: "T"
    value {
      type: DT_FLOAT
    }
  }
  attr {
    key: "_class"
    value {
      list {
        s: "loc:@conv2d_2/kernel"
      }
    }
  }
}
node {
  name: "conv2d_2/kernel"
  op: "VarHandleOp"
  attr {
    key: "_class"
    value {
      list {
        s: "loc:@conv2d_2/kernel"
      }
    }
  }
  attr {
    key: "container"
    value {
      s: ""
    }
  }
  attr {
    key: "dtype"
    value {
      type: DT_FLOAT
    }
  }
  attr {
    key: "shape"
    value {
      shape {
        dim {
          size: 3
        }
        dim {
          size: 3
        }
        dim {
          size: 32
        }
        dim {
          size: 64
        }
      }
    }
  }
  attr {
    key: "shared_name"
    value {
      s: "conv2d_2/kernel"
    }
  }
}
node {
  name: "conv2d_2/kernel/IsInitialized/VarIsInitializedOp"
  op: "VarIsInitializedOp"
  input: "conv2d_2/kernel"
}
node {
  name: "conv2d_2/kernel/Assign"
  op: "AssignVariableOp"
  input: "conv2d_2/kernel"
  input: "conv2d_2/kernel/Initializer/random_uniform"
  attr {
    key: "_class"
    value {
      list {
        s: "loc:@conv2d_2/kernel"
      }
    }
  }
  attr {
    key: "dtype"
    value {
      type: DT_FLOAT
    }
  }
}
node {
  name: "conv2d_2/kernel/Read/ReadVariableOp"
  op: "ReadVariableOp"
  input: "conv2d_2/kernel"
  attr {
    key: "_class"
    value {
      list {
        s: "loc:@conv2d_2/kernel"
      }
    }
  }
  attr {
    key: "dtype"
    value {
      type: DT_FLOAT
    }
  }
}
node {
  name: "conv2d_2/bias/Initializer/zeros"
  op: "Const"
  attr {
    key: "_class"
    value {
      list {
        s: "loc:@conv2d_2/bias"
      }
    }
  }
  attr {
    key: "dtype"
    value {
      type: DT_FLOAT
    }
  }
  attr {
    key: "value"
    value {
      tensor {
        dtype: DT_FLOAT
        tensor_shape {
          dim {
            size: 64
          }
        }
        float_val: 0.0
      }
    }
  }
}
node {
  name: "conv2d_2/bias"
  op: "VarHandleOp"
  attr {
    key: "_class"
    value {
      list {
        s: "loc:@conv2d_2/bias"
      }
    }
  }
  attr {
    key: "container"
    value {
      s: ""
    }
  }
  attr {
    key: "dtype"
    value {
      type: DT_FLOAT
    }
  }
  attr {
    key: "shape"
    value {
      shape {
        dim {
          size: 64
        }
      }
    }
  }
  attr {
    key: "shared_name"
    value {
      s: "conv2d_2/bias"
    }
  }
}
node {
  name: "conv2d_2/bias/IsInitialized/VarIsInitializedOp"
  op: "VarIsInitializedOp"
  input: "conv2d_2/bias"
}
node {
  name: "conv2d_2/bias/Assign"
  op: "AssignVariableOp"
  input: "conv2d_2/bias"
  input: "conv2d_2/bias/Initializer/zeros"
  attr {
    key: "_class"
    value {
      list {
        s: "loc:@conv2d_2/bias"
      }
    }
  }
  attr {
    key: "dtype"
    value {
      type: DT_FLOAT
    }
  }
}
node {
  name: "conv2d_2/bias/Read/ReadVariableOp"
  op: "ReadVariableOp"
  input: "conv2d_2/bias"
  attr {
    key: "_class"
    value {
      list {
        s: "loc:@conv2d_2/bias"
      }
    }
  }
  attr {
    key: "dtype"
    value {
      type: DT_FLOAT
    }
  }
}
node {
  name: "conv2d_2/dilation_rate"
  op: "Const"
  attr {
    key: "dtype"
    value {
      type: DT_INT32
    }
  }
  attr {
    key: "value"
    value {
      tensor {
        dtype: DT_INT32
        tensor_shape {
          dim {
            size: 2
          }
        }
        tensor_content: "\004\000\000\000\004\000\000\000"
      }
    }
  }
}
node {
  name: "conv2d_2/filter_shape"
  op: "Const"
  attr {
    key: "dtype"
    value {
      type: DT_INT32
    }
  }
  attr {
    key: "value"
    value {
      tensor {
        dtype: DT_INT32
        tensor_shape {
          dim {
            size: 4
          }
        }
        tensor_content: "\003\000\000\000\003\000\000\000 \000\000\000@\000\000\000"
      }
    }
  }
}
node {
  name: "conv2d_2/stack"
  op: "Const"
  attr {
    key: "dtype"
    value {
      type: DT_INT32
    }
  }
  attr {
    key: "value"
    value {
      tensor {
        dtype: DT_INT32
        tensor_shape {
          dim {
            size: 2
          }
          dim {
            size: 2
          }
        }
        tensor_content: "\004\000\000\000\004\000\000\000\004\000\000\000\004\000\000\000"
      }
    }
  }
}
node {
  name: "conv2d_2/required_space_to_batch_paddings/input_shape"
  op: "Const"
  attr {
    key: "dtype"
    value {
      type: DT_INT32
    }
  }
  attr {
    key: "value"
    value {
      tensor {
        dtype: DT_INT32
        tensor_shape {
          dim {
            size: 2
          }
        }
        tensor_content: "@\000\000\000@\000\000\000"
      }
    }
  }
}
node {
  name: "conv2d_2/required_space_to_batch_paddings/paddings"
  op: "Const"
  attr {
    key: "dtype"
    value {
      type: DT_INT32
    }
  }
  attr {
    key: "value"
    value {
      tensor {
        dtype: DT_INT32
        tensor_shape {
          dim {
            size: 2
          }
          dim {
            size: 2
          }
        }
        tensor_content: "\004\000\000\000\004\000\000\000\004\000\000\000\004\000\000\000"
      }
    }
  }
}
node {
  name: "conv2d_2/required_space_to_batch_paddings/crops"
  op: "Const"
  attr {
    key: "dtype"
    value {
      type: DT_INT32
    }
  }
  attr {
    key: "value"
    value {
      tensor {
        dtype: DT_INT32
        tensor_shape {
          dim {
            size: 2
          }
          dim {
            size: 2
          }
        }
        tensor_content: "\000\000\000\000\000\000\000\000\000\000\000\000\000\000\000\000"
      }
    }
  }
}
node {
  name: "conv2d_2/SpaceToBatchND/block_shape"
  op: "Const"
  attr {
    key: "dtype"
    value {
      type: DT_INT32
    }
  }
  attr {
    key: "value"
    value {
      tensor {
        dtype: DT_INT32
        tensor_shape {
          dim {
            size: 2
          }
        }
        tensor_content: "\004\000\000\000\004\000\000\000"
      }
    }
  }
}
node {
  name: "conv2d_2/SpaceToBatchND/paddings"
  op: "Const"
  attr {
    key: "dtype"
    value {
      type: DT_INT32
    }
  }
  attr {
    key: "value"
    value {
      tensor {
        dtype: DT_INT32
        tensor_shape {
          dim {
            size: 2
          }
          dim {
            size: 2
          }
        }
        tensor_content: "\004\000\000\000\004\000\000\000\004\000\000\000\004\000\000\000"
      }
    }
  }
}
node {
  name: "conv2d_2/SpaceToBatchND"
  op: "SpaceToBatchND"
  input: "conv2d_1/Relu"
  input: "conv2d_2/SpaceToBatchND/block_shape"
  input: "conv2d_2/SpaceToBatchND/paddings"
  attr {
    key: "T"
    value {
      type: DT_FLOAT
    }
  }
  attr {
    key: "Tblock_shape"
    value {
      type: DT_INT32
    }
  }
  attr {
    key: "Tpaddings"
    value {
      type: DT_INT32
    }
  }
}
node {
  name: "conv2d_2/Conv2D/ReadVariableOp"
  op: "ReadVariableOp"
  input: "conv2d_2/kernel"
  attr {
    key: "dtype"
    value {
      type: DT_FLOAT
    }
  }
}
node {
  name: "conv2d_2/Conv2D"
  op: "Conv2D"
  input: "conv2d_2/SpaceToBatchND"
  input: "conv2d_2/Conv2D/ReadVariableOp"
  attr {
    key: "T"
    value {
      type: DT_FLOAT
    }
  }
  attr {
    key: "data_format"
    value {
      s: "NHWC"
    }
  }
  attr {
    key: "dilations"
    value {
      list {
        i: 1
        i: 1
        i: 1
        i: 1
      }
    }
  }
  attr {
    key: "padding"
    value {
      s: "VALID"
    }
  }
  attr {
    key: "strides"
    value {
      list {
        i: 1
        i: 1
        i: 1
        i: 1
      }
    }
  }
  attr {
    key: "use_cudnn_on_gpu"
    value {
      b: true
    }
  }
}
node {
  name: "conv2d_2/BatchToSpaceND/block_shape"
  op: "Const"
  attr {
    key: "dtype"
    value {
      type: DT_INT32
    }
  }
  attr {
    key: "value"
    value {
      tensor {
        dtype: DT_INT32
        tensor_shape {
          dim {
            size: 2
          }
        }
        tensor_content: "\004\000\000\000\004\000\000\000"
      }
    }
  }
}
node {
  name: "conv2d_2/BatchToSpaceND/crops"
  op: "Const"
  attr {
    key: "dtype"
    value {
      type: DT_INT32
    }
  }
  attr {
    key: "value"
    value {
      tensor {
        dtype: DT_INT32
        tensor_shape {
          dim {
            size: 2
          }
          dim {
            size: 2
          }
        }
        tensor_content: "\000\000\000\000\000\000\000\000\000\000\000\000\000\000\000\000"
      }
    }
  }
}
node {
  name: "conv2d_2/BatchToSpaceND"
  op: "BatchToSpaceND"
  input: "conv2d_2/Conv2D"
  input: "conv2d_2/BatchToSpaceND/block_shape"
  input: "conv2d_2/BatchToSpaceND/crops"
  attr {
    key: "T"
    value {
      type: DT_FLOAT
    }
  }
  attr {
    key: "Tblock_shape"
    value {
      type: DT_INT32
    }
  }
  attr {
    key: "Tcrops"
    value {
      type: DT_INT32
    }
  }
}
node {
  name: "conv2d_2/BiasAdd/ReadVariableOp"
  op: "ReadVariableOp"
  input: "conv2d_2/bias"
  attr {
    key: "dtype"
    value {
      type: DT_FLOAT
    }
  }
}
node {
  name: "conv2d_2/BiasAdd"
  op: "BiasAdd"
  input: "conv2d_2/BatchToSpaceND"
  input: "conv2d_2/BiasAdd/ReadVariableOp"
  attr {
    key: "T"
    value {
      type: DT_FLOAT
    }
  }
  attr {
    key: "data_format"
    value {
      s: "NHWC"
    }
  }
}
node {
  name: "conv2d_2/Relu"
  op: "Relu"
  input: "conv2d_2/BiasAdd"
  attr {
    key: "T"
    value {
      type: DT_FLOAT
    }
  }
}
node {
  name: "conv2d_transpose/kernel/Initializer/random_uniform/shape"
  op: "Const"
  attr {
    key: "_class"
    value {
      list {
        s: "loc:@conv2d_transpose/kernel"
      }
    }
  }
  attr {
    key: "dtype"
    value {
      type: DT_INT32
    }
  }
  attr {
    key: "value"
    value {
      tensor {
        dtype: DT_INT32
        tensor_shape {
          dim {
            size: 4
          }
        }
        tensor_content: "\003\000\000\000\003\000\000\000\200\000\000\000@\000\000\000"
      }
    }
  }
}
node {
  name: "conv2d_transpose/kernel/Initializer/random_uniform/min"
  op: "Const"
  attr {
    key: "_class"
    value {
      list {
        s: "loc:@conv2d_transpose/kernel"
      }
    }
  }
  attr {
    key: "dtype"
    value {
      type: DT_FLOAT
    }
  }
  attr {
    key: "value"
    value {
      tensor {
        dtype: DT_FLOAT
        tensor_shape {
        }
        float_val: -0.0589255653321743
      }
    }
  }
}
node {
  name: "conv2d_transpose/kernel/Initializer/random_uniform/max"
  op: "Const"
  attr {
    key: "_class"
    value {
      list {
        s: "loc:@conv2d_transpose/kernel"
      }
    }
  }
  attr {
    key: "dtype"
    value {
      type: DT_FLOAT
    }
  }
  attr {
    key: "value"
    value {
      tensor {
        dtype: DT_FLOAT
        tensor_shape {
        }
        float_val: 0.0589255653321743
      }
    }
  }
}
node {
  name: "conv2d_transpose/kernel/Initializer/random_uniform/RandomUniform"
  op: "RandomUniform"
  input: "conv2d_transpose/kernel/Initializer/random_uniform/shape"
  attr {
    key: "T"
    value {
      type: DT_INT32
    }
  }
  attr {
    key: "_class"
    value {
      list {
        s: "loc:@conv2d_transpose/kernel"
      }
    }
  }
  attr {
    key: "dtype"
    value {
      type: DT_FLOAT
    }
  }
  attr {
    key: "seed"
    value {
      i: 0
    }
  }
  attr {
    key: "seed2"
    value {
      i: 0
    }
  }
}
node {
  name: "conv2d_transpose/kernel/Initializer/random_uniform/sub"
  op: "Sub"
  input: "conv2d_transpose/kernel/Initializer/random_uniform/max"
  input: "conv2d_transpose/kernel/Initializer/random_uniform/min"
  attr {
    key: "T"
    value {
      type: DT_FLOAT
    }
  }
  attr {
    key: "_class"
    value {
      list {
        s: "loc:@conv2d_transpose/kernel"
      }
    }
  }
}
node {
  name: "conv2d_transpose/kernel/Initializer/random_uniform/mul"
  op: "Mul"
  input: "conv2d_transpose/kernel/Initializer/random_uniform/RandomUniform"
  input: "conv2d_transpose/kernel/Initializer/random_uniform/sub"
  attr {
    key: "T"
    value {
      type: DT_FLOAT
    }
  }
  attr {
    key: "_class"
    value {
      list {
        s: "loc:@conv2d_transpose/kernel"
      }
    }
  }
}
node {
  name: "conv2d_transpose/kernel/Initializer/random_uniform"
  op: "Add"
  input: "conv2d_transpose/kernel/Initializer/random_uniform/mul"
  input: "conv2d_transpose/kernel/Initializer/random_uniform/min"
  attr {
    key: "T"
    value {
      type: DT_FLOAT
    }
  }
  attr {
    key: "_class"
    value {
      list {
        s: "loc:@conv2d_transpose/kernel"
      }
    }
  }
}
node {
  name: "conv2d_transpose/kernel"
  op: "VarHandleOp"
  attr {
    key: "_class"
    value {
      list {
        s: "loc:@conv2d_transpose/kernel"
      }
    }
  }
  attr {
    key: "container"
    value {
      s: ""
    }
  }
  attr {
    key: "dtype"
    value {
      type: DT_FLOAT
    }
  }
  attr {
    key: "shape"
    value {
      shape {
        dim {
          size: 3
        }
        dim {
          size: 3
        }
        dim {
          size: 128
        }
        dim {
          size: 64
        }
      }
    }
  }
  attr {
    key: "shared_name"
    value {
      s: "conv2d_transpose/kernel"
    }
  }
}
node {
  name: "conv2d_transpose/kernel/IsInitialized/VarIsInitializedOp"
  op: "VarIsInitializedOp"
  input: "conv2d_transpose/kernel"
}
node {
  name: "conv2d_transpose/kernel/Assign"
  op: "AssignVariableOp"
  input: "conv2d_transpose/kernel"
  input: "conv2d_transpose/kernel/Initializer/random_uniform"
  attr {
    key: "_class"
    value {
      list {
        s: "loc:@conv2d_transpose/kernel"
      }
    }
  }
  attr {
    key: "dtype"
    value {
      type: DT_FLOAT
    }
  }
}
node {
  name: "conv2d_transpose/kernel/Read/ReadVariableOp"
  op: "ReadVariableOp"
  input: "conv2d_transpose/kernel"
  attr {
    key: "_class"
    value {
      list {
        s: "loc:@conv2d_transpose/kernel"
      }
    }
  }
  attr {
    key: "dtype"
    value {
      type: DT_FLOAT
    }
  }
}
node {
  name: "conv2d_transpose/bias/Initializer/zeros"
  op: "Const"
  attr {
    key: "_class"
    value {
      list {
        s: "loc:@conv2d_transpose/bias"
      }
    }
  }
  attr {
    key: "dtype"
    value {
      type: DT_FLOAT
    }
  }
  attr {
    key: "value"
    value {
      tensor {
        dtype: DT_FLOAT
        tensor_shape {
          dim {
            size: 128
          }
        }
        float_val: 0.0
      }
    }
  }
}
node {
  name: "conv2d_transpose/bias"
  op: "VarHandleOp"
  attr {
    key: "_class"
    value {
      list {
        s: "loc:@conv2d_transpose/bias"
      }
    }
  }
  attr {
    key: "container"
    value {
      s: ""
    }
  }
  attr {
    key: "dtype"
    value {
      type: DT_FLOAT
    }
  }
  attr {
    key: "shape"
    value {
      shape {
        dim {
          size: 128
        }
      }
    }
  }
  attr {
    key: "shared_name"
    value {
      s: "conv2d_transpose/bias"
    }
  }
}
node {
  name: "conv2d_transpose/bias/IsInitialized/VarIsInitializedOp"
  op: "VarIsInitializedOp"
  input: "conv2d_transpose/bias"
}
node {
  name: "conv2d_transpose/bias/Assign"
  op: "AssignVariableOp"
  input: "conv2d_transpose/bias"
  input: "conv2d_transpose/bias/Initializer/zeros"
  attr {
    key: "_class"
    value {
      list {
        s: "loc:@conv2d_transpose/bias"
      }
    }
  }
  attr {
    key: "dtype"
    value {
      type: DT_FLOAT
    }
  }
}
node {
  name: "conv2d_transpose/bias/Read/ReadVariableOp"
  op: "ReadVariableOp"
  input: "conv2d_transpose/bias"
  attr {
    key: "_class"
    value {
      list {
        s: "loc:@conv2d_transpose/bias"
      }
    }
  }
  attr {
    key: "dtype"
    value {
      type: DT_FLOAT
    }
  }
}
node {
  name: "conv2d_transpose/Shape"
  op: "Shape"
  input: "conv2d_2/Relu"
  attr {
    key: "T"
    value {
      type: DT_FLOAT
    }
  }
  attr {
    key: "out_type"
    value {
      type: DT_INT32
    }
  }
}
node {
  name: "conv2d_transpose/strided_slice/stack"
  op: "Const"
  attr {
    key: "dtype"
    value {
      type: DT_INT32
    }
  }
  attr {
    key: "value"
    value {
      tensor {
        dtype: DT_INT32
        tensor_shape {
          dim {
            size: 1
          }
        }
        int_val: 0
      }
    }
  }
}
node {
  name: "conv2d_transpose/strided_slice/stack_1"
  op: "Const"
  attr {
    key: "dtype"
    value {
      type: DT_INT32
    }
  }
  attr {
    key: "value"
    value {
      tensor {
        dtype: DT_INT32
        tensor_shape {
          dim {
            size: 1
          }
        }
        int_val: 1
      }
    }
  }
}
node {
  name: "conv2d_transpose/strided_slice/stack_2"
  op: "Const"
  attr {
    key: "dtype"
    value {
      type: DT_INT32
    }
  }
  attr {
    key: "value"
    value {
      tensor {
        dtype: DT_INT32
        tensor_shape {
          dim {
            size: 1
          }
        }
        int_val: 1
      }
    }
  }
}
node {
  name: "conv2d_transpose/strided_slice"
  op: "StridedSlice"
  input: "conv2d_transpose/Shape"
  input: "conv2d_transpose/strided_slice/stack"
  input: "conv2d_transpose/strided_slice/stack_1"
  input: "conv2d_transpose/strided_slice/stack_2"
  attr {
    key: "Index"
    value {
      type: DT_INT32
    }
  }
  attr {
    key: "T"
    value {
      type: DT_INT32
    }
  }
  attr {
    key: "begin_mask"
    value {
      i: 0
    }
  }
  attr {
    key: "ellipsis_mask"
    value {
      i: 0
    }
  }
  attr {
    key: "end_mask"
    value {
      i: 0
    }
  }
  attr {
    key: "new_axis_mask"
    value {
      i: 0
    }
  }
  attr {
    key: "shrink_axis_mask"
    value {
      i: 1
    }
  }
}
node {
  name: "conv2d_transpose/strided_slice_1/stack"
  op: "Const"
  attr {
    key: "dtype"
    value {
      type: DT_INT32
    }
  }
  attr {
    key: "value"
    value {
      tensor {
        dtype: DT_INT32
        tensor_shape {
          dim {
            size: 1
          }
        }
        int_val: 1
      }
    }
  }
}
node {
  name: "conv2d_transpose/strided_slice_1/stack_1"
  op: "Const"
  attr {
    key: "dtype"
    value {
      type: DT_INT32
    }
  }
  attr {
    key: "value"
    value {
      tensor {
        dtype: DT_INT32
        tensor_shape {
          dim {
            size: 1
          }
        }
        int_val: 2
      }
    }
  }
}
node {
  name: "conv2d_transpose/strided_slice_1/stack_2"
  op: "Const"
  attr {
    key: "dtype"
    value {
      type: DT_INT32
    }
  }
  attr {
    key: "value"
    value {
      tensor {
        dtype: DT_INT32
        tensor_shape {
          dim {
            size: 1
          }
        }
        int_val: 1
      }
    }
  }
}
node {
  name: "conv2d_transpose/strided_slice_1"
  op: "StridedSlice"
  input: "conv2d_transpose/Shape"
  input: "conv2d_transpose/strided_slice_1/stack"
  input: "conv2d_transpose/strided_slice_1/stack_1"
  input: "conv2d_transpose/strided_slice_1/stack_2"
  attr {
    key: "Index"
    value {
      type: DT_INT32
    }
  }
  attr {
    key: "T"
    value {
      type: DT_INT32
    }
  }
  attr {
    key: "begin_mask"
    value {
      i: 0
    }
  }
  attr {
    key: "ellipsis_mask"
    value {
      i: 0
    }
  }
  attr {
    key: "end_mask"
    value {
      i: 0
    }
  }
  attr {
    key: "new_axis_mask"
    value {
      i: 0
    }
  }
  attr {
    key: "shrink_axis_mask"
    value {
      i: 1
    }
  }
}
node {
  name: "conv2d_transpose/strided_slice_2/stack"
  op: "Const"
  attr {
    key: "dtype"
    value {
      type: DT_INT32
    }
  }
  attr {
    key: "value"
    value {
      tensor {
        dtype: DT_INT32
        tensor_shape {
          dim {
            size: 1
          }
        }
        int_val: 2
      }
    }
  }
}
node {
  name: "conv2d_transpose/strided_slice_2/stack_1"
  op: "Const"
  attr {
    key: "dtype"
    value {
      type: DT_INT32
    }
  }
  attr {
    key: "value"
    value {
      tensor {
        dtype: DT_INT32
        tensor_shape {
          dim {
            size: 1
          }
        }
        int_val: 3
      }
    }
  }
}
node {
  name: "conv2d_transpose/strided_slice_2/stack_2"
  op: "Const"
  attr {
    key: "dtype"
    value {
      type: DT_INT32
    }
  }
  attr {
    key: "value"
    value {
      tensor {
        dtype: DT_INT32
        tensor_shape {
          dim {
            size: 1
          }
        }
        int_val: 1
      }
    }
  }
}
node {
  name: "conv2d_transpose/strided_slice_2"
  op: "StridedSlice"
  input: "conv2d_transpose/Shape"
  input: "conv2d_transpose/strided_slice_2/stack"
  input: "conv2d_transpose/strided_slice_2/stack_1"
  input: "conv2d_transpose/strided_slice_2/stack_2"
  attr {
    key: "Index"
    value {
      type: DT_INT32
    }
  }
  attr {
    key: "T"
    value {
      type: DT_INT32
    }
  }
  attr {
    key: "begin_mask"
    value {
      i: 0
    }
  }
  attr {
    key: "ellipsis_mask"
    value {
      i: 0
    }
  }
  attr {
    key: "end_mask"
    value {
      i: 0
    }
  }
  attr {
    key: "new_axis_mask"
    value {
      i: 0
    }
  }
  attr {
    key: "shrink_axis_mask"
    value {
      i: 1
    }
  }
}
node {
  name: "conv2d_transpose/mul/y"
  op: "Const"
  attr {
    key: "dtype"
    value {
      type: DT_INT32
    }
  }
  attr {
    key: "value"
    value {
      tensor {
        dtype: DT_INT32
        tensor_shape {
        }
        int_val: 1
      }
    }
  }
}
node {
  name: "conv2d_transpose/mul"
  op: "Mul"
  input: "conv2d_transpose/strided_slice_1"
  input: "conv2d_transpose/mul/y"
  attr {
    key: "T"
    value {
      type: DT_INT32
    }
  }
}
node {
  name: "conv2d_transpose/mul_1/y"
  op: "Const"
  attr {
    key: "dtype"
    value {
      type: DT_INT32
    }
  }
  attr {
    key: "value"
    value {
      tensor {
        dtype: DT_INT32
        tensor_shape {
        }
        int_val: 1
      }
    }
  }
}
node {
  name: "conv2d_transpose/mul_1"
  op: "Mul"
  input: "conv2d_transpose/strided_slice_2"
  input: "conv2d_transpose/mul_1/y"
  attr {
    key: "T"
    value {
      type: DT_INT32
    }
  }
}
node {
  name: "conv2d_transpose/stack/3"
  op: "Const"
  attr {
    key: "dtype"
    value {
      type: DT_INT32
    }
  }
  attr {
    key: "value"
    value {
      tensor {
        dtype: DT_INT32
        tensor_shape {
        }
        int_val: 128
      }
    }
  }
}
node {
  name: "conv2d_transpose/stack"
  op: "Pack"
  input: "conv2d_transpose/strided_slice"
  input: "conv2d_transpose/mul"
  input: "conv2d_transpose/mul_1"
  input: "conv2d_transpose/stack/3"
  attr {
    key: "N"
    value {
      i: 4
    }
  }
  attr {
    key: "T"
    value {
      type: DT_INT32
    }
  }
  attr {
    key: "axis"
    value {
      i: 0
    }
  }
}
node {
  name: "conv2d_transpose/conv2d_transpose/ReadVariableOp"
  op: "ReadVariableOp"
  input: "conv2d_transpose/kernel"
  attr {
    key: "dtype"
    value {
      type: DT_FLOAT
    }
  }
}
node {
  name: "conv2d_transpose/conv2d_transpose"
  op: "Conv2DBackpropInput"
  input: "conv2d_transpose/stack"
  input: "conv2d_transpose/conv2d_transpose/ReadVariableOp"
  input: "conv2d_2/Relu"
  attr {
    key: "T"
    value {
      type: DT_FLOAT
    }
  }
  attr {
    key: "data_format"
    value {
      s: "NHWC"
    }
  }
  attr {
    key: "dilations"
    value {
      list {
        i: 1
        i: 1
        i: 1
        i: 1
      }
    }
  }
  attr {
    key: "padding"
    value {
      s: "SAME"
    }
  }
  attr {
    key: "strides"
    value {
      list {
        i: 1
        i: 1
        i: 1
        i: 1
      }
    }
  }
  attr {
    key: "use_cudnn_on_gpu"
    value {
      b: true
    }
  }
}
node {
  name: "conv2d_transpose/BiasAdd/ReadVariableOp"
  op: "ReadVariableOp"
  input: "conv2d_transpose/bias"
  attr {
    key: "dtype"
    value {
      type: DT_FLOAT
    }
  }
}
node {
  name: "conv2d_transpose/BiasAdd"
  op: "BiasAdd"
  input: "conv2d_transpose/conv2d_transpose"
  input: "conv2d_transpose/BiasAdd/ReadVariableOp"
  attr {
    key: "T"
    value {
      type: DT_FLOAT
    }
  }
  attr {
    key: "data_format"
    value {
      s: "NHWC"
    }
  }
}
node {
  name: "conv2d_transpose/Relu"
  op: "Relu"
  input: "conv2d_transpose/BiasAdd"
  attr {
    key: "T"
    value {
      type: DT_FLOAT
    }
  }
}
node {
  name: "conv2d_transpose_1/kernel/Initializer/random_uniform/shape"
  op: "Const"
  attr {
    key: "_class"
    value {
      list {
        s: "loc:@conv2d_transpose_1/kernel"
      }
    }
  }
  attr {
    key: "dtype"
    value {
      type: DT_INT32
    }
  }
  attr {
    key: "value"
    value {
      tensor {
        dtype: DT_INT32
        tensor_shape {
          dim {
            size: 4
          }
        }
        tensor_content: "\003\000\000\000\003\000\000\000@\000\000\000\200\000\000\000"
      }
    }
  }
}
node {
  name: "conv2d_transpose_1/kernel/Initializer/random_uniform/min"
  op: "Const"
  attr {
    key: "_class"
    value {
      list {
        s: "loc:@conv2d_transpose_1/kernel"
      }
    }
  }
  attr {
    key: "dtype"
    value {
      type: DT_FLOAT
    }
  }
  attr {
    key: "value"
    value {
      tensor {
        dtype: DT_FLOAT
        tensor_shape {
        }
        float_val: -0.0589255653321743
      }
    }
  }
}
node {
  name: "conv2d_transpose_1/kernel/Initializer/random_uniform/max"
  op: "Const"
  attr {
    key: "_class"
    value {
      list {
        s: "loc:@conv2d_transpose_1/kernel"
      }
    }
  }
  attr {
    key: "dtype"
    value {
      type: DT_FLOAT
    }
  }
  attr {
    key: "value"
    value {
      tensor {
        dtype: DT_FLOAT
        tensor_shape {
        }
        float_val: 0.0589255653321743
      }
    }
  }
}
node {
  name: "conv2d_transpose_1/kernel/Initializer/random_uniform/RandomUniform"
  op: "RandomUniform"
  input: "conv2d_transpose_1/kernel/Initializer/random_uniform/shape"
  attr {
    key: "T"
    value {
      type: DT_INT32
    }
  }
  attr {
    key: "_class"
    value {
      list {
        s: "loc:@conv2d_transpose_1/kernel"
      }
    }
  }
  attr {
    key: "dtype"
    value {
      type: DT_FLOAT
    }
  }
  attr {
    key: "seed"
    value {
      i: 0
    }
  }
  attr {
    key: "seed2"
    value {
      i: 0
    }
  }
}
node {
  name: "conv2d_transpose_1/kernel/Initializer/random_uniform/sub"
  op: "Sub"
  input: "conv2d_transpose_1/kernel/Initializer/random_uniform/max"
  input: "conv2d_transpose_1/kernel/Initializer/random_uniform/min"
  attr {
    key: "T"
    value {
      type: DT_FLOAT
    }
  }
  attr {
    key: "_class"
    value {
      list {
        s: "loc:@conv2d_transpose_1/kernel"
      }
    }
  }
}
node {
  name: "conv2d_transpose_1/kernel/Initializer/random_uniform/mul"
  op: "Mul"
  input: "conv2d_transpose_1/kernel/Initializer/random_uniform/RandomUniform"
  input: "conv2d_transpose_1/kernel/Initializer/random_uniform/sub"
  attr {
    key: "T"
    value {
      type: DT_FLOAT
    }
  }
  attr {
    key: "_class"
    value {
      list {
        s: "loc:@conv2d_transpose_1/kernel"
      }
    }
  }
}
node {
  name: "conv2d_transpose_1/kernel/Initializer/random_uniform"
  op: "Add"
  input: "conv2d_transpose_1/kernel/Initializer/random_uniform/mul"
  input: "conv2d_transpose_1/kernel/Initializer/random_uniform/min"
  attr {
    key: "T"
    value {
      type: DT_FLOAT
    }
  }
  attr {
    key: "_class"
    value {
      list {
        s: "loc:@conv2d_transpose_1/kernel"
      }
    }
  }
}
node {
  name: "conv2d_transpose_1/kernel"
  op: "VarHandleOp"
  attr {
    key: "_class"
    value {
      list {
        s: "loc:@conv2d_transpose_1/kernel"
      }
    }
  }
  attr {
    key: "container"
    value {
      s: ""
    }
  }
  attr {
    key: "dtype"
    value {
      type: DT_FLOAT
    }
  }
  attr {
    key: "shape"
    value {
      shape {
        dim {
          size: 3
        }
        dim {
          size: 3
        }
        dim {
          size: 64
        }
        dim {
          size: 128
        }
      }
    }
  }
  attr {
    key: "shared_name"
    value {
      s: "conv2d_transpose_1/kernel"
    }
  }
}
node {
  name: "conv2d_transpose_1/kernel/IsInitialized/VarIsInitializedOp"
  op: "VarIsInitializedOp"
  input: "conv2d_transpose_1/kernel"
}
node {
  name: "conv2d_transpose_1/kernel/Assign"
  op: "AssignVariableOp"
  input: "conv2d_transpose_1/kernel"
  input: "conv2d_transpose_1/kernel/Initializer/random_uniform"
  attr {
    key: "_class"
    value {
      list {
        s: "loc:@conv2d_transpose_1/kernel"
      }
    }
  }
  attr {
    key: "dtype"
    value {
      type: DT_FLOAT
    }
  }
}
node {
  name: "conv2d_transpose_1/kernel/Read/ReadVariableOp"
  op: "ReadVariableOp"
  input: "conv2d_transpose_1/kernel"
  attr {
    key: "_class"
    value {
      list {
        s: "loc:@conv2d_transpose_1/kernel"
      }
    }
  }
  attr {
    key: "dtype"
    value {
      type: DT_FLOAT
    }
  }
}
node {
  name: "conv2d_transpose_1/bias/Initializer/zeros"
  op: "Const"
  attr {
    key: "_class"
    value {
      list {
        s: "loc:@conv2d_transpose_1/bias"
      }
    }
  }
  attr {
    key: "dtype"
    value {
      type: DT_FLOAT
    }
  }
  attr {
    key: "value"
    value {
      tensor {
        dtype: DT_FLOAT
        tensor_shape {
          dim {
            size: 64
          }
        }
        float_val: 0.0
      }
    }
  }
}
node {
  name: "conv2d_transpose_1/bias"
  op: "VarHandleOp"
  attr {
    key: "_class"
    value {
      list {
        s: "loc:@conv2d_transpose_1/bias"
      }
    }
  }
  attr {
    key: "container"
    value {
      s: ""
    }
  }
  attr {
    key: "dtype"
    value {
      type: DT_FLOAT
    }
  }
  attr {
    key: "shape"
    value {
      shape {
        dim {
          size: 64
        }
      }
    }
  }
  attr {
    key: "shared_name"
    value {
      s: "conv2d_transpose_1/bias"
    }
  }
}
node {
  name: "conv2d_transpose_1/bias/IsInitialized/VarIsInitializedOp"
  op: "VarIsInitializedOp"
  input: "conv2d_transpose_1/bias"
}
node {
  name: "conv2d_transpose_1/bias/Assign"
  op: "AssignVariableOp"
  input: "conv2d_transpose_1/bias"
  input: "conv2d_transpose_1/bias/Initializer/zeros"
  attr {
    key: "_class"
    value {
      list {
        s: "loc:@conv2d_transpose_1/bias"
      }
    }
  }
  attr {
    key: "dtype"
    value {
      type: DT_FLOAT
    }
  }
}
node {
  name: "conv2d_transpose_1/bias/Read/ReadVariableOp"
  op: "ReadVariableOp"
  input: "conv2d_transpose_1/bias"
  attr {
    key: "_class"
    value {
      list {
        s: "loc:@conv2d_transpose_1/bias"
      }
    }
  }
  attr {
    key: "dtype"
    value {
      type: DT_FLOAT
    }
  }
}
node {
  name: "conv2d_transpose_1/Shape"
  op: "Shape"
  input: "conv2d_transpose/Relu"
  attr {
    key: "T"
    value {
      type: DT_FLOAT
    }
  }
  attr {
    key: "out_type"
    value {
      type: DT_INT32
    }
  }
}
node {
  name: "conv2d_transpose_1/strided_slice/stack"
  op: "Const"
  attr {
    key: "dtype"
    value {
      type: DT_INT32
    }
  }
  attr {
    key: "value"
    value {
      tensor {
        dtype: DT_INT32
        tensor_shape {
          dim {
            size: 1
          }
        }
        int_val: 0
      }
    }
  }
}
node {
  name: "conv2d_transpose_1/strided_slice/stack_1"
  op: "Const"
  attr {
    key: "dtype"
    value {
      type: DT_INT32
    }
  }
  attr {
    key: "value"
    value {
      tensor {
        dtype: DT_INT32
        tensor_shape {
          dim {
            size: 1
          }
        }
        int_val: 1
      }
    }
  }
}
node {
  name: "conv2d_transpose_1/strided_slice/stack_2"
  op: "Const"
  attr {
    key: "dtype"
    value {
      type: DT_INT32
    }
  }
  attr {
    key: "value"
    value {
      tensor {
        dtype: DT_INT32
        tensor_shape {
          dim {
            size: 1
          }
        }
        int_val: 1
      }
    }
  }
}
node {
  name: "conv2d_transpose_1/strided_slice"
  op: "StridedSlice"
  input: "conv2d_transpose_1/Shape"
  input: "conv2d_transpose_1/strided_slice/stack"
  input: "conv2d_transpose_1/strided_slice/stack_1"
  input: "conv2d_transpose_1/strided_slice/stack_2"
  attr {
    key: "Index"
    value {
      type: DT_INT32
    }
  }
  attr {
    key: "T"
    value {
      type: DT_INT32
    }
  }
  attr {
    key: "begin_mask"
    value {
      i: 0
    }
  }
  attr {
    key: "ellipsis_mask"
    value {
      i: 0
    }
  }
  attr {
    key: "end_mask"
    value {
      i: 0
    }
  }
  attr {
    key: "new_axis_mask"
    value {
      i: 0
    }
  }
  attr {
    key: "shrink_axis_mask"
    value {
      i: 1
    }
  }
}
node {
  name: "conv2d_transpose_1/strided_slice_1/stack"
  op: "Const"
  attr {
    key: "dtype"
    value {
      type: DT_INT32
    }
  }
  attr {
    key: "value"
    value {
      tensor {
        dtype: DT_INT32
        tensor_shape {
          dim {
            size: 1
          }
        }
        int_val: 1
      }
    }
  }
}
node {
  name: "conv2d_transpose_1/strided_slice_1/stack_1"
  op: "Const"
  attr {
    key: "dtype"
    value {
      type: DT_INT32
    }
  }
  attr {
    key: "value"
    value {
      tensor {
        dtype: DT_INT32
        tensor_shape {
          dim {
            size: 1
          }
        }
        int_val: 2
      }
    }
  }
}
node {
  name: "conv2d_transpose_1/strided_slice_1/stack_2"
  op: "Const"
  attr {
    key: "dtype"
    value {
      type: DT_INT32
    }
  }
  attr {
    key: "value"
    value {
      tensor {
        dtype: DT_INT32
        tensor_shape {
          dim {
            size: 1
          }
        }
        int_val: 1
      }
    }
  }
}
node {
  name: "conv2d_transpose_1/strided_slice_1"
  op: "StridedSlice"
  input: "conv2d_transpose_1/Shape"
  input: "conv2d_transpose_1/strided_slice_1/stack"
  input: "conv2d_transpose_1/strided_slice_1/stack_1"
  input: "conv2d_transpose_1/strided_slice_1/stack_2"
  attr {
    key: "Index"
    value {
      type: DT_INT32
    }
  }
  attr {
    key: "T"
    value {
      type: DT_INT32
    }
  }
  attr {
    key: "begin_mask"
    value {
      i: 0
    }
  }
  attr {
    key: "ellipsis_mask"
    value {
      i: 0
    }
  }
  attr {
    key: "end_mask"
    value {
      i: 0
    }
  }
  attr {
    key: "new_axis_mask"
    value {
      i: 0
    }
  }
  attr {
    key: "shrink_axis_mask"
    value {
      i: 1
    }
  }
}
node {
  name: "conv2d_transpose_1/strided_slice_2/stack"
  op: "Const"
  attr {
    key: "dtype"
    value {
      type: DT_INT32
    }
  }
  attr {
    key: "value"
    value {
      tensor {
        dtype: DT_INT32
        tensor_shape {
          dim {
            size: 1
          }
        }
        int_val: 2
      }
    }
  }
}
node {
  name: "conv2d_transpose_1/strided_slice_2/stack_1"
  op: "Const"
  attr {
    key: "dtype"
    value {
      type: DT_INT32
    }
  }
  attr {
    key: "value"
    value {
      tensor {
        dtype: DT_INT32
        tensor_shape {
          dim {
            size: 1
          }
        }
        int_val: 3
      }
    }
  }
}
node {
  name: "conv2d_transpose_1/strided_slice_2/stack_2"
  op: "Const"
  attr {
    key: "dtype"
    value {
      type: DT_INT32
    }
  }
  attr {
    key: "value"
    value {
      tensor {
        dtype: DT_INT32
        tensor_shape {
          dim {
            size: 1
          }
        }
        int_val: 1
      }
    }
  }
}
node {
  name: "conv2d_transpose_1/strided_slice_2"
  op: "StridedSlice"
  input: "conv2d_transpose_1/Shape"
  input: "conv2d_transpose_1/strided_slice_2/stack"
  input: "conv2d_transpose_1/strided_slice_2/stack_1"
  input: "conv2d_transpose_1/strided_slice_2/stack_2"
  attr {
    key: "Index"
    value {
      type: DT_INT32
    }
  }
  attr {
    key: "T"
    value {
      type: DT_INT32
    }
  }
  attr {
    key: "begin_mask"
    value {
      i: 0
    }
  }
  attr {
    key: "ellipsis_mask"
    value {
      i: 0
    }
  }
  attr {
    key: "end_mask"
    value {
      i: 0
    }
  }
  attr {
    key: "new_axis_mask"
    value {
      i: 0
    }
  }
  attr {
    key: "shrink_axis_mask"
    value {
      i: 1
    }
  }
}
node {
  name: "conv2d_transpose_1/mul/y"
  op: "Const"
  attr {
    key: "dtype"
    value {
      type: DT_INT32
    }
  }
  attr {
    key: "value"
    value {
      tensor {
        dtype: DT_INT32
        tensor_shape {
        }
        int_val: 1
      }
    }
  }
}
node {
  name: "conv2d_transpose_1/mul"
  op: "Mul"
  input: "conv2d_transpose_1/strided_slice_1"
  input: "conv2d_transpose_1/mul/y"
  attr {
    key: "T"
    value {
      type: DT_INT32
    }
  }
}
node {
  name: "conv2d_transpose_1/mul_1/y"
  op: "Const"
  attr {
    key: "dtype"
    value {
      type: DT_INT32
    }
  }
  attr {
    key: "value"
    value {
      tensor {
        dtype: DT_INT32
        tensor_shape {
        }
        int_val: 1
      }
    }
  }
}
node {
  name: "conv2d_transpose_1/mul_1"
  op: "Mul"
  input: "conv2d_transpose_1/strided_slice_2"
  input: "conv2d_transpose_1/mul_1/y"
  attr {
    key: "T"
    value {
      type: DT_INT32
    }
  }
}
node {
  name: "conv2d_transpose_1/stack/3"
  op: "Const"
  attr {
    key: "dtype"
    value {
      type: DT_INT32
    }
  }
  attr {
    key: "value"
    value {
      tensor {
        dtype: DT_INT32
        tensor_shape {
        }
        int_val: 64
      }
    }
  }
}
node {
  name: "conv2d_transpose_1/stack"
  op: "Pack"
  input: "conv2d_transpose_1/strided_slice"
  input: "conv2d_transpose_1/mul"
  input: "conv2d_transpose_1/mul_1"
  input: "conv2d_transpose_1/stack/3"
  attr {
    key: "N"
    value {
      i: 4
    }
  }
  attr {
    key: "T"
    value {
      type: DT_INT32
    }
  }
  attr {
    key: "axis"
    value {
      i: 0
    }
  }
}
node {
  name: "conv2d_transpose_1/conv2d_transpose/ReadVariableOp"
  op: "ReadVariableOp"
  input: "conv2d_transpose_1/kernel"
  attr {
    key: "dtype"
    value {
      type: DT_FLOAT
    }
  }
}
node {
  name: "conv2d_transpose_1/conv2d_transpose"
  op: "Conv2DBackpropInput"
  input: "conv2d_transpose_1/stack"
  input: "conv2d_transpose_1/conv2d_transpose/ReadVariableOp"
  input: "conv2d_transpose/Relu"
  attr {
    key: "T"
    value {
      type: DT_FLOAT
    }
  }
  attr {
    key: "data_format"
    value {
      s: "NHWC"
    }
  }
  attr {
    key: "dilations"
    value {
      list {
        i: 1
        i: 1
        i: 1
        i: 1
      }
    }
  }
  attr {
    key: "padding"
    value {
      s: "SAME"
    }
  }
  attr {
    key: "strides"
    value {
      list {
        i: 1
        i: 1
        i: 1
        i: 1
      }
    }
  }
  attr {
    key: "use_cudnn_on_gpu"
    value {
      b: true
    }
  }
}
node {
  name: "conv2d_transpose_1/BiasAdd/ReadVariableOp"
  op: "ReadVariableOp"
  input: "conv2d_transpose_1/bias"
  attr {
    key: "dtype"
    value {
      type: DT_FLOAT
    }
  }
}
node {
  name: "conv2d_transpose_1/BiasAdd"
  op: "BiasAdd"
  input: "conv2d_transpose_1/conv2d_transpose"
  input: "conv2d_transpose_1/BiasAdd/ReadVariableOp"
  attr {
    key: "T"
    value {
      type: DT_FLOAT
    }
  }
  attr {
    key: "data_format"
    value {
      s: "NHWC"
    }
  }
}
node {
  name: "conv2d_transpose_1/Relu"
  op: "Relu"
  input: "conv2d_transpose_1/BiasAdd"
  attr {
    key: "T"
    value {
      type: DT_FLOAT
    }
  }
}
node {
  name: "conv2d_transpose_2/kernel/Initializer/random_uniform/shape"
  op: "Const"
  attr {
    key: "_class"
    value {
      list {
        s: "loc:@conv2d_transpose_2/kernel"
      }
    }
  }
  attr {
    key: "dtype"
    value {
      type: DT_INT32
    }
  }
  attr {
    key: "value"
    value {
      tensor {
        dtype: DT_INT32
        tensor_shape {
          dim {
            size: 4
          }
        }
        tensor_content: "\003\000\000\000\003\000\000\000 \000\000\000@\000\000\000"
      }
    }
  }
}
node {
  name: "conv2d_transpose_2/kernel/Initializer/random_uniform/min"
  op: "Const"
  attr {
    key: "_class"
    value {
      list {
        s: "loc:@conv2d_transpose_2/kernel"
      }
    }
  }
  attr {
    key: "dtype"
    value {
      type: DT_FLOAT
    }
  }
  attr {
    key: "value"
    value {
      tensor {
        dtype: DT_FLOAT
        tensor_shape {
        }
        float_val: -0.0833333358168602
      }
    }
  }
}
node {
  name: "conv2d_transpose_2/kernel/Initializer/random_uniform/max"
  op: "Const"
  attr {
    key: "_class"
    value {
      list {
        s: "loc:@conv2d_transpose_2/kernel"
      }
    }
  }
  attr {
    key: "dtype"
    value {
      type: DT_FLOAT
    }
  }
  attr {
    key: "value"
    value {
      tensor {
        dtype: DT_FLOAT
        tensor_shape {
        }
        float_val: 0.0833333358168602
      }
    }
  }
}
node {
  name: "conv2d_transpose_2/kernel/Initializer/random_uniform/RandomUniform"
  op: "RandomUniform"
  input: "conv2d_transpose_2/kernel/Initializer/random_uniform/shape"
  attr {
    key: "T"
    value {
      type: DT_INT32
    }
  }
  attr {
    key: "_class"
    value {
      list {
        s: "loc:@conv2d_transpose_2/kernel"
      }
    }
  }
  attr {
    key: "dtype"
    value {
      type: DT_FLOAT
    }
  }
  attr {
    key: "seed"
    value {
      i: 0
    }
  }
  attr {
    key: "seed2"
    value {
      i: 0
    }
  }
}
node {
  name: "conv2d_transpose_2/kernel/Initializer/random_uniform/sub"
  op: "Sub"
  input: "conv2d_transpose_2/kernel/Initializer/random_uniform/max"
  input: "conv2d_transpose_2/kernel/Initializer/random_uniform/min"
  attr {
    key: "T"
    value {
      type: DT_FLOAT
    }
  }
  attr {
    key: "_class"
    value {
      list {
        s: "loc:@conv2d_transpose_2/kernel"
      }
    }
  }
}
node {
  name: "conv2d_transpose_2/kernel/Initializer/random_uniform/mul"
  op: "Mul"
  input: "conv2d_transpose_2/kernel/Initializer/random_uniform/RandomUniform"
  input: "conv2d_transpose_2/kernel/Initializer/random_uniform/sub"
  attr {
    key: "T"
    value {
      type: DT_FLOAT
    }
  }
  attr {
    key: "_class"
    value {
      list {
        s: "loc:@conv2d_transpose_2/kernel"
      }
    }
  }
}
node {
  name: "conv2d_transpose_2/kernel/Initializer/random_uniform"
  op: "Add"
  input: "conv2d_transpose_2/kernel/Initializer/random_uniform/mul"
  input: "conv2d_transpose_2/kernel/Initializer/random_uniform/min"
  attr {
    key: "T"
    value {
      type: DT_FLOAT
    }
  }
  attr {
    key: "_class"
    value {
      list {
        s: "loc:@conv2d_transpose_2/kernel"
      }
    }
  }
}
node {
  name: "conv2d_transpose_2/kernel"
  op: "VarHandleOp"
  attr {
    key: "_class"
    value {
      list {
        s: "loc:@conv2d_transpose_2/kernel"
      }
    }
  }
  attr {
    key: "container"
    value {
      s: ""
    }
  }
  attr {
    key: "dtype"
    value {
      type: DT_FLOAT
    }
  }
  attr {
    key: "shape"
    value {
      shape {
        dim {
          size: 3
        }
        dim {
          size: 3
        }
        dim {
          size: 32
        }
        dim {
          size: 64
        }
      }
    }
  }
  attr {
    key: "shared_name"
    value {
      s: "conv2d_transpose_2/kernel"
    }
  }
}
node {
  name: "conv2d_transpose_2/kernel/IsInitialized/VarIsInitializedOp"
  op: "VarIsInitializedOp"
  input: "conv2d_transpose_2/kernel"
}
node {
  name: "conv2d_transpose_2/kernel/Assign"
  op: "AssignVariableOp"
  input: "conv2d_transpose_2/kernel"
  input: "conv2d_transpose_2/kernel/Initializer/random_uniform"
  attr {
    key: "_class"
    value {
      list {
        s: "loc:@conv2d_transpose_2/kernel"
      }
    }
  }
  attr {
    key: "dtype"
    value {
      type: DT_FLOAT
    }
  }
}
node {
  name: "conv2d_transpose_2/kernel/Read/ReadVariableOp"
  op: "ReadVariableOp"
  input: "conv2d_transpose_2/kernel"
  attr {
    key: "_class"
    value {
      list {
        s: "loc:@conv2d_transpose_2/kernel"
      }
    }
  }
  attr {
    key: "dtype"
    value {
      type: DT_FLOAT
    }
  }
}
node {
  name: "conv2d_transpose_2/bias/Initializer/zeros"
  op: "Const"
  attr {
    key: "_class"
    value {
      list {
        s: "loc:@conv2d_transpose_2/bias"
      }
    }
  }
  attr {
    key: "dtype"
    value {
      type: DT_FLOAT
    }
  }
  attr {
    key: "value"
    value {
      tensor {
        dtype: DT_FLOAT
        tensor_shape {
          dim {
            size: 32
          }
        }
        float_val: 0.0
      }
    }
  }
}
node {
  name: "conv2d_transpose_2/bias"
  op: "VarHandleOp"
  attr {
    key: "_class"
    value {
      list {
        s: "loc:@conv2d_transpose_2/bias"
      }
    }
  }
  attr {
    key: "container"
    value {
      s: ""
    }
  }
  attr {
    key: "dtype"
    value {
      type: DT_FLOAT
    }
  }
  attr {
    key: "shape"
    value {
      shape {
        dim {
          size: 32
        }
      }
    }
  }
  attr {
    key: "shared_name"
    value {
      s: "conv2d_transpose_2/bias"
    }
  }
}
node {
  name: "conv2d_transpose_2/bias/IsInitialized/VarIsInitializedOp"
  op: "VarIsInitializedOp"
  input: "conv2d_transpose_2/bias"
}
node {
  name: "conv2d_transpose_2/bias/Assign"
  op: "AssignVariableOp"
  input: "conv2d_transpose_2/bias"
  input: "conv2d_transpose_2/bias/Initializer/zeros"
  attr {
    key: "_class"
    value {
      list {
        s: "loc:@conv2d_transpose_2/bias"
      }
    }
  }
  attr {
    key: "dtype"
    value {
      type: DT_FLOAT
    }
  }
}
node {
  name: "conv2d_transpose_2/bias/Read/ReadVariableOp"
  op: "ReadVariableOp"
  input: "conv2d_transpose_2/bias"
  attr {
    key: "_class"
    value {
      list {
        s: "loc:@conv2d_transpose_2/bias"
      }
    }
  }
  attr {
    key: "dtype"
    value {
      type: DT_FLOAT
    }
  }
}
node {
  name: "conv2d_transpose_2/Shape"
  op: "Shape"
  input: "conv2d_transpose_1/Relu"
  attr {
    key: "T"
    value {
      type: DT_FLOAT
    }
  }
  attr {
    key: "out_type"
    value {
      type: DT_INT32
    }
  }
}
node {
  name: "conv2d_transpose_2/strided_slice/stack"
  op: "Const"
  attr {
    key: "dtype"
    value {
      type: DT_INT32
    }
  }
  attr {
    key: "value"
    value {
      tensor {
        dtype: DT_INT32
        tensor_shape {
          dim {
            size: 1
          }
        }
        int_val: 0
      }
    }
  }
}
node {
  name: "conv2d_transpose_2/strided_slice/stack_1"
  op: "Const"
  attr {
    key: "dtype"
    value {
      type: DT_INT32
    }
  }
  attr {
    key: "value"
    value {
      tensor {
        dtype: DT_INT32
        tensor_shape {
          dim {
            size: 1
          }
        }
        int_val: 1
      }
    }
  }
}
node {
  name: "conv2d_transpose_2/strided_slice/stack_2"
  op: "Const"
  attr {
    key: "dtype"
    value {
      type: DT_INT32
    }
  }
  attr {
    key: "value"
    value {
      tensor {
        dtype: DT_INT32
        tensor_shape {
          dim {
            size: 1
          }
        }
        int_val: 1
      }
    }
  }
}
node {
  name: "conv2d_transpose_2/strided_slice"
  op: "StridedSlice"
  input: "conv2d_transpose_2/Shape"
  input: "conv2d_transpose_2/strided_slice/stack"
  input: "conv2d_transpose_2/strided_slice/stack_1"
  input: "conv2d_transpose_2/strided_slice/stack_2"
  attr {
    key: "Index"
    value {
      type: DT_INT32
    }
  }
  attr {
    key: "T"
    value {
      type: DT_INT32
    }
  }
  attr {
    key: "begin_mask"
    value {
      i: 0
    }
  }
  attr {
    key: "ellipsis_mask"
    value {
      i: 0
    }
  }
  attr {
    key: "end_mask"
    value {
      i: 0
    }
  }
  attr {
    key: "new_axis_mask"
    value {
      i: 0
    }
  }
  attr {
    key: "shrink_axis_mask"
    value {
      i: 1
    }
  }
}
node {
  name: "conv2d_transpose_2/strided_slice_1/stack"
  op: "Const"
  attr {
    key: "dtype"
    value {
      type: DT_INT32
    }
  }
  attr {
    key: "value"
    value {
      tensor {
        dtype: DT_INT32
        tensor_shape {
          dim {
            size: 1
          }
        }
        int_val: 1
      }
    }
  }
}
node {
  name: "conv2d_transpose_2/strided_slice_1/stack_1"
  op: "Const"
  attr {
    key: "dtype"
    value {
      type: DT_INT32
    }
  }
  attr {
    key: "value"
    value {
      tensor {
        dtype: DT_INT32
        tensor_shape {
          dim {
            size: 1
          }
        }
        int_val: 2
      }
    }
  }
}
node {
  name: "conv2d_transpose_2/strided_slice_1/stack_2"
  op: "Const"
  attr {
    key: "dtype"
    value {
      type: DT_INT32
    }
  }
  attr {
    key: "value"
    value {
      tensor {
        dtype: DT_INT32
        tensor_shape {
          dim {
            size: 1
          }
        }
        int_val: 1
      }
    }
  }
}
node {
  name: "conv2d_transpose_2/strided_slice_1"
  op: "StridedSlice"
  input: "conv2d_transpose_2/Shape"
  input: "conv2d_transpose_2/strided_slice_1/stack"
  input: "conv2d_transpose_2/strided_slice_1/stack_1"
  input: "conv2d_transpose_2/strided_slice_1/stack_2"
  attr {
    key: "Index"
    value {
      type: DT_INT32
    }
  }
  attr {
    key: "T"
    value {
      type: DT_INT32
    }
  }
  attr {
    key: "begin_mask"
    value {
      i: 0
    }
  }
  attr {
    key: "ellipsis_mask"
    value {
      i: 0
    }
  }
  attr {
    key: "end_mask"
    value {
      i: 0
    }
  }
  attr {
    key: "new_axis_mask"
    value {
      i: 0
    }
  }
  attr {
    key: "shrink_axis_mask"
    value {
      i: 1
    }
  }
}
node {
  name: "conv2d_transpose_2/strided_slice_2/stack"
  op: "Const"
  attr {
    key: "dtype"
    value {
      type: DT_INT32
    }
  }
  attr {
    key: "value"
    value {
      tensor {
        dtype: DT_INT32
        tensor_shape {
          dim {
            size: 1
          }
        }
        int_val: 2
      }
    }
  }
}
node {
  name: "conv2d_transpose_2/strided_slice_2/stack_1"
  op: "Const"
  attr {
    key: "dtype"
    value {
      type: DT_INT32
    }
  }
  attr {
    key: "value"
    value {
      tensor {
        dtype: DT_INT32
        tensor_shape {
          dim {
            size: 1
          }
        }
        int_val: 3
      }
    }
  }
}
node {
  name: "conv2d_transpose_2/strided_slice_2/stack_2"
  op: "Const"
  attr {
    key: "dtype"
    value {
      type: DT_INT32
    }
  }
  attr {
    key: "value"
    value {
      tensor {
        dtype: DT_INT32
        tensor_shape {
          dim {
            size: 1
          }
        }
        int_val: 1
      }
    }
  }
}
node {
  name: "conv2d_transpose_2/strided_slice_2"
  op: "StridedSlice"
  input: "conv2d_transpose_2/Shape"
  input: "conv2d_transpose_2/strided_slice_2/stack"
  input: "conv2d_transpose_2/strided_slice_2/stack_1"
  input: "conv2d_transpose_2/strided_slice_2/stack_2"
  attr {
    key: "Index"
    value {
      type: DT_INT32
    }
  }
  attr {
    key: "T"
    value {
      type: DT_INT32
    }
  }
  attr {
    key: "begin_mask"
    value {
      i: 0
    }
  }
  attr {
    key: "ellipsis_mask"
    value {
      i: 0
    }
  }
  attr {
    key: "end_mask"
    value {
      i: 0
    }
  }
  attr {
    key: "new_axis_mask"
    value {
      i: 0
    }
  }
  attr {
    key: "shrink_axis_mask"
    value {
      i: 1
    }
  }
}
node {
  name: "conv2d_transpose_2/mul/y"
  op: "Const"
  attr {
    key: "dtype"
    value {
      type: DT_INT32
    }
  }
  attr {
    key: "value"
    value {
      tensor {
        dtype: DT_INT32
        tensor_shape {
        }
        int_val: 1
      }
    }
  }
}
node {
  name: "conv2d_transpose_2/mul"
  op: "Mul"
  input: "conv2d_transpose_2/strided_slice_1"
  input: "conv2d_transpose_2/mul/y"
  attr {
    key: "T"
    value {
      type: DT_INT32
    }
  }
}
node {
  name: "conv2d_transpose_2/mul_1/y"
  op: "Const"
  attr {
    key: "dtype"
    value {
      type: DT_INT32
    }
  }
  attr {
    key: "value"
    value {
      tensor {
        dtype: DT_INT32
        tensor_shape {
        }
        int_val: 1
      }
    }
  }
}
node {
  name: "conv2d_transpose_2/mul_1"
  op: "Mul"
  input: "conv2d_transpose_2/strided_slice_2"
  input: "conv2d_transpose_2/mul_1/y"
  attr {
    key: "T"
    value {
      type: DT_INT32
    }
  }
}
node {
  name: "conv2d_transpose_2/stack/3"
  op: "Const"
  attr {
    key: "dtype"
    value {
      type: DT_INT32
    }
  }
  attr {
    key: "value"
    value {
      tensor {
        dtype: DT_INT32
        tensor_shape {
        }
        int_val: 32
      }
    }
  }
}
node {
  name: "conv2d_transpose_2/stack"
  op: "Pack"
  input: "conv2d_transpose_2/strided_slice"
  input: "conv2d_transpose_2/mul"
  input: "conv2d_transpose_2/mul_1"
  input: "conv2d_transpose_2/stack/3"
  attr {
    key: "N"
    value {
      i: 4
    }
  }
  attr {
    key: "T"
    value {
      type: DT_INT32
    }
  }
  attr {
    key: "axis"
    value {
      i: 0
    }
  }
}
node {
  name: "conv2d_transpose_2/conv2d_transpose/ReadVariableOp"
  op: "ReadVariableOp"
  input: "conv2d_transpose_2/kernel"
  attr {
    key: "dtype"
    value {
      type: DT_FLOAT
    }
  }
}
node {
  name: "conv2d_transpose_2/conv2d_transpose"
  op: "Conv2DBackpropInput"
  input: "conv2d_transpose_2/stack"
  input: "conv2d_transpose_2/conv2d_transpose/ReadVariableOp"
  input: "conv2d_transpose_1/Relu"
  attr {
    key: "T"
    value {
      type: DT_FLOAT
    }
  }
  attr {
    key: "data_format"
    value {
      s: "NHWC"
    }
  }
  attr {
    key: "dilations"
    value {
      list {
        i: 1
        i: 1
        i: 1
        i: 1
      }
    }
  }
  attr {
    key: "padding"
    value {
      s: "SAME"
    }
  }
  attr {
    key: "strides"
    value {
      list {
        i: 1
        i: 1
        i: 1
        i: 1
      }
    }
  }
  attr {
    key: "use_cudnn_on_gpu"
    value {
      b: true
    }
  }
}
node {
  name: "conv2d_transpose_2/BiasAdd/ReadVariableOp"
  op: "ReadVariableOp"
  input: "conv2d_transpose_2/bias"
  attr {
    key: "dtype"
    value {
      type: DT_FLOAT
    }
  }
}
node {
  name: "conv2d_transpose_2/BiasAdd"
  op: "BiasAdd"
  input: "conv2d_transpose_2/conv2d_transpose"
  input: "conv2d_transpose_2/BiasAdd/ReadVariableOp"
  attr {
    key: "T"
    value {
      type: DT_FLOAT
    }
  }
  attr {
    key: "data_format"
    value {
      s: "NHWC"
    }
  }
}
node {
  name: "conv2d_transpose_2/Relu"
  op: "Relu"
  input: "conv2d_transpose_2/BiasAdd"
  attr {
    key: "T"
    value {
      type: DT_FLOAT
    }
  }
}
node {
  name: "conv2d_transpose_3/kernel/Initializer/random_uniform/shape"
  op: "Const"
  attr {
    key: "_class"
    value {
      list {
        s: "loc:@conv2d_transpose_3/kernel"
      }
    }
  }
  attr {
    key: "dtype"
    value {
      type: DT_INT32
    }
  }
  attr {
    key: "value"
    value {
      tensor {
        dtype: DT_INT32
        tensor_shape {
          dim {
            size: 4
          }
        }
        tensor_content: "\003\000\000\000\003\000\000\000\020\000\000\000 \000\000\000"
      }
    }
  }
}
node {
  name: "conv2d_transpose_3/kernel/Initializer/random_uniform/min"
  op: "Const"
  attr {
    key: "_class"
    value {
      list {
        s: "loc:@conv2d_transpose_3/kernel"
      }
    }
  }
  attr {
    key: "dtype"
    value {
      type: DT_FLOAT
    }
  }
  attr {
    key: "value"
    value {
      tensor {
        dtype: DT_FLOAT
        tensor_shape {
        }
        float_val: -0.1178511306643486
      }
    }
  }
}
node {
  name: "conv2d_transpose_3/kernel/Initializer/random_uniform/max"
  op: "Const"
  attr {
    key: "_class"
    value {
      list {
        s: "loc:@conv2d_transpose_3/kernel"
      }
    }
  }
  attr {
    key: "dtype"
    value {
      type: DT_FLOAT
    }
  }
  attr {
    key: "value"
    value {
      tensor {
        dtype: DT_FLOAT
        tensor_shape {
        }
        float_val: 0.1178511306643486
      }
    }
  }
}
node {
  name: "conv2d_transpose_3/kernel/Initializer/random_uniform/RandomUniform"
  op: "RandomUniform"
  input: "conv2d_transpose_3/kernel/Initializer/random_uniform/shape"
  attr {
    key: "T"
    value {
      type: DT_INT32
    }
  }
  attr {
    key: "_class"
    value {
      list {
        s: "loc:@conv2d_transpose_3/kernel"
      }
    }
  }
  attr {
    key: "dtype"
    value {
      type: DT_FLOAT
    }
  }
  attr {
    key: "seed"
    value {
      i: 0
    }
  }
  attr {
    key: "seed2"
    value {
      i: 0
    }
  }
}
node {
  name: "conv2d_transpose_3/kernel/Initializer/random_uniform/sub"
  op: "Sub"
  input: "conv2d_transpose_3/kernel/Initializer/random_uniform/max"
  input: "conv2d_transpose_3/kernel/Initializer/random_uniform/min"
  attr {
    key: "T"
    value {
      type: DT_FLOAT
    }
  }
  attr {
    key: "_class"
    value {
      list {
        s: "loc:@conv2d_transpose_3/kernel"
      }
    }
  }
}
node {
  name: "conv2d_transpose_3/kernel/Initializer/random_uniform/mul"
  op: "Mul"
  input: "conv2d_transpose_3/kernel/Initializer/random_uniform/RandomUniform"
  input: "conv2d_transpose_3/kernel/Initializer/random_uniform/sub"
  attr {
    key: "T"
    value {
      type: DT_FLOAT
    }
  }
  attr {
    key: "_class"
    value {
      list {
        s: "loc:@conv2d_transpose_3/kernel"
      }
    }
  }
}
node {
  name: "conv2d_transpose_3/kernel/Initializer/random_uniform"
  op: "Add"
  input: "conv2d_transpose_3/kernel/Initializer/random_uniform/mul"
  input: "conv2d_transpose_3/kernel/Initializer/random_uniform/min"
  attr {
    key: "T"
    value {
      type: DT_FLOAT
    }
  }
  attr {
    key: "_class"
    value {
      list {
        s: "loc:@conv2d_transpose_3/kernel"
      }
    }
  }
}
node {
  name: "conv2d_transpose_3/kernel"
  op: "VarHandleOp"
  attr {
    key: "_class"
    value {
      list {
        s: "loc:@conv2d_transpose_3/kernel"
      }
    }
  }
  attr {
    key: "container"
    value {
      s: ""
    }
  }
  attr {
    key: "dtype"
    value {
      type: DT_FLOAT
    }
  }
  attr {
    key: "shape"
    value {
      shape {
        dim {
          size: 3
        }
        dim {
          size: 3
        }
        dim {
          size: 16
        }
        dim {
          size: 32
        }
      }
    }
  }
  attr {
    key: "shared_name"
    value {
      s: "conv2d_transpose_3/kernel"
    }
  }
}
node {
  name: "conv2d_transpose_3/kernel/IsInitialized/VarIsInitializedOp"
  op: "VarIsInitializedOp"
  input: "conv2d_transpose_3/kernel"
}
node {
  name: "conv2d_transpose_3/kernel/Assign"
  op: "AssignVariableOp"
  input: "conv2d_transpose_3/kernel"
  input: "conv2d_transpose_3/kernel/Initializer/random_uniform"
  attr {
    key: "_class"
    value {
      list {
        s: "loc:@conv2d_transpose_3/kernel"
      }
    }
  }
  attr {
    key: "dtype"
    value {
      type: DT_FLOAT
    }
  }
}
node {
  name: "conv2d_transpose_3/kernel/Read/ReadVariableOp"
  op: "ReadVariableOp"
  input: "conv2d_transpose_3/kernel"
  attr {
    key: "_class"
    value {
      list {
        s: "loc:@conv2d_transpose_3/kernel"
      }
    }
  }
  attr {
    key: "dtype"
    value {
      type: DT_FLOAT
    }
  }
}
node {
  name: "conv2d_transpose_3/bias/Initializer/zeros"
  op: "Const"
  attr {
    key: "_class"
    value {
      list {
        s: "loc:@conv2d_transpose_3/bias"
      }
    }
  }
  attr {
    key: "dtype"
    value {
      type: DT_FLOAT
    }
  }
  attr {
    key: "value"
    value {
      tensor {
        dtype: DT_FLOAT
        tensor_shape {
          dim {
            size: 16
          }
        }
        float_val: 0.0
      }
    }
  }
}
node {
  name: "conv2d_transpose_3/bias"
  op: "VarHandleOp"
  attr {
    key: "_class"
    value {
      list {
        s: "loc:@conv2d_transpose_3/bias"
      }
    }
  }
  attr {
    key: "container"
    value {
      s: ""
    }
  }
  attr {
    key: "dtype"
    value {
      type: DT_FLOAT
    }
  }
  attr {
    key: "shape"
    value {
      shape {
        dim {
          size: 16
        }
      }
    }
  }
  attr {
    key: "shared_name"
    value {
      s: "conv2d_transpose_3/bias"
    }
  }
}
node {
  name: "conv2d_transpose_3/bias/IsInitialized/VarIsInitializedOp"
  op: "VarIsInitializedOp"
  input: "conv2d_transpose_3/bias"
}
node {
  name: "conv2d_transpose_3/bias/Assign"
  op: "AssignVariableOp"
  input: "conv2d_transpose_3/bias"
  input: "conv2d_transpose_3/bias/Initializer/zeros"
  attr {
    key: "_class"
    value {
      list {
        s: "loc:@conv2d_transpose_3/bias"
      }
    }
  }
  attr {
    key: "dtype"
    value {
      type: DT_FLOAT
    }
  }
}
node {
  name: "conv2d_transpose_3/bias/Read/ReadVariableOp"
  op: "ReadVariableOp"
  input: "conv2d_transpose_3/bias"
  attr {
    key: "_class"
    value {
      list {
        s: "loc:@conv2d_transpose_3/bias"
      }
    }
  }
  attr {
    key: "dtype"
    value {
      type: DT_FLOAT
    }
  }
}
node {
  name: "conv2d_transpose_3/Shape"
  op: "Shape"
  input: "conv2d_transpose_2/Relu"
  attr {
    key: "T"
    value {
      type: DT_FLOAT
    }
  }
  attr {
    key: "out_type"
    value {
      type: DT_INT32
    }
  }
}
node {
  name: "conv2d_transpose_3/strided_slice/stack"
  op: "Const"
  attr {
    key: "dtype"
    value {
      type: DT_INT32
    }
  }
  attr {
    key: "value"
    value {
      tensor {
        dtype: DT_INT32
        tensor_shape {
          dim {
            size: 1
          }
        }
        int_val: 0
      }
    }
  }
}
node {
  name: "conv2d_transpose_3/strided_slice/stack_1"
  op: "Const"
  attr {
    key: "dtype"
    value {
      type: DT_INT32
    }
  }
  attr {
    key: "value"
    value {
      tensor {
        dtype: DT_INT32
        tensor_shape {
          dim {
            size: 1
          }
        }
        int_val: 1
      }
    }
  }
}
node {
  name: "conv2d_transpose_3/strided_slice/stack_2"
  op: "Const"
  attr {
    key: "dtype"
    value {
      type: DT_INT32
    }
  }
  attr {
    key: "value"
    value {
      tensor {
        dtype: DT_INT32
        tensor_shape {
          dim {
            size: 1
          }
        }
        int_val: 1
      }
    }
  }
}
node {
  name: "conv2d_transpose_3/strided_slice"
  op: "StridedSlice"
  input: "conv2d_transpose_3/Shape"
  input: "conv2d_transpose_3/strided_slice/stack"
  input: "conv2d_transpose_3/strided_slice/stack_1"
  input: "conv2d_transpose_3/strided_slice/stack_2"
  attr {
    key: "Index"
    value {
      type: DT_INT32
    }
  }
  attr {
    key: "T"
    value {
      type: DT_INT32
    }
  }
  attr {
    key: "begin_mask"
    value {
      i: 0
    }
  }
  attr {
    key: "ellipsis_mask"
    value {
      i: 0
    }
  }
  attr {
    key: "end_mask"
    value {
      i: 0
    }
  }
  attr {
    key: "new_axis_mask"
    value {
      i: 0
    }
  }
  attr {
    key: "shrink_axis_mask"
    value {
      i: 1
    }
  }
}
node {
  name: "conv2d_transpose_3/strided_slice_1/stack"
  op: "Const"
  attr {
    key: "dtype"
    value {
      type: DT_INT32
    }
  }
  attr {
    key: "value"
    value {
      tensor {
        dtype: DT_INT32
        tensor_shape {
          dim {
            size: 1
          }
        }
        int_val: 1
      }
    }
  }
}
node {
  name: "conv2d_transpose_3/strided_slice_1/stack_1"
  op: "Const"
  attr {
    key: "dtype"
    value {
      type: DT_INT32
    }
  }
  attr {
    key: "value"
    value {
      tensor {
        dtype: DT_INT32
        tensor_shape {
          dim {
            size: 1
          }
        }
        int_val: 2
      }
    }
  }
}
node {
  name: "conv2d_transpose_3/strided_slice_1/stack_2"
  op: "Const"
  attr {
    key: "dtype"
    value {
      type: DT_INT32
    }
  }
  attr {
    key: "value"
    value {
      tensor {
        dtype: DT_INT32
        tensor_shape {
          dim {
            size: 1
          }
        }
        int_val: 1
      }
    }
  }
}
node {
  name: "conv2d_transpose_3/strided_slice_1"
  op: "StridedSlice"
  input: "conv2d_transpose_3/Shape"
  input: "conv2d_transpose_3/strided_slice_1/stack"
  input: "conv2d_transpose_3/strided_slice_1/stack_1"
  input: "conv2d_transpose_3/strided_slice_1/stack_2"
  attr {
    key: "Index"
    value {
      type: DT_INT32
    }
  }
  attr {
    key: "T"
    value {
      type: DT_INT32
    }
  }
  attr {
    key: "begin_mask"
    value {
      i: 0
    }
  }
  attr {
    key: "ellipsis_mask"
    value {
      i: 0
    }
  }
  attr {
    key: "end_mask"
    value {
      i: 0
    }
  }
  attr {
    key: "new_axis_mask"
    value {
      i: 0
    }
  }
  attr {
    key: "shrink_axis_mask"
    value {
      i: 1
    }
  }
}
node {
  name: "conv2d_transpose_3/strided_slice_2/stack"
  op: "Const"
  attr {
    key: "dtype"
    value {
      type: DT_INT32
    }
  }
  attr {
    key: "value"
    value {
      tensor {
        dtype: DT_INT32
        tensor_shape {
          dim {
            size: 1
          }
        }
        int_val: 2
      }
    }
  }
}
node {
  name: "conv2d_transpose_3/strided_slice_2/stack_1"
  op: "Const"
  attr {
    key: "dtype"
    value {
      type: DT_INT32
    }
  }
  attr {
    key: "value"
    value {
      tensor {
        dtype: DT_INT32
        tensor_shape {
          dim {
            size: 1
          }
        }
        int_val: 3
      }
    }
  }
}
node {
  name: "conv2d_transpose_3/strided_slice_2/stack_2"
  op: "Const"
  attr {
    key: "dtype"
    value {
      type: DT_INT32
    }
  }
  attr {
    key: "value"
    value {
      tensor {
        dtype: DT_INT32
        tensor_shape {
          dim {
            size: 1
          }
        }
        int_val: 1
      }
    }
  }
}
node {
  name: "conv2d_transpose_3/strided_slice_2"
  op: "StridedSlice"
  input: "conv2d_transpose_3/Shape"
  input: "conv2d_transpose_3/strided_slice_2/stack"
  input: "conv2d_transpose_3/strided_slice_2/stack_1"
  input: "conv2d_transpose_3/strided_slice_2/stack_2"
  attr {
    key: "Index"
    value {
      type: DT_INT32
    }
  }
  attr {
    key: "T"
    value {
      type: DT_INT32
    }
  }
  attr {
    key: "begin_mask"
    value {
      i: 0
    }
  }
  attr {
    key: "ellipsis_mask"
    value {
      i: 0
    }
  }
  attr {
    key: "end_mask"
    value {
      i: 0
    }
  }
  attr {
    key: "new_axis_mask"
    value {
      i: 0
    }
  }
  attr {
    key: "shrink_axis_mask"
    value {
      i: 1
    }
  }
}
node {
  name: "conv2d_transpose_3/mul/y"
  op: "Const"
  attr {
    key: "dtype"
    value {
      type: DT_INT32
    }
  }
  attr {
    key: "value"
    value {
      tensor {
        dtype: DT_INT32
        tensor_shape {
        }
        int_val: 1
      }
    }
  }
}
node {
  name: "conv2d_transpose_3/mul"
  op: "Mul"
  input: "conv2d_transpose_3/strided_slice_1"
  input: "conv2d_transpose_3/mul/y"
  attr {
    key: "T"
    value {
      type: DT_INT32
    }
  }
}
node {
  name: "conv2d_transpose_3/mul_1/y"
  op: "Const"
  attr {
    key: "dtype"
    value {
      type: DT_INT32
    }
  }
  attr {
    key: "value"
    value {
      tensor {
        dtype: DT_INT32
        tensor_shape {
        }
        int_val: 1
      }
    }
  }
}
node {
  name: "conv2d_transpose_3/mul_1"
  op: "Mul"
  input: "conv2d_transpose_3/strided_slice_2"
  input: "conv2d_transpose_3/mul_1/y"
  attr {
    key: "T"
    value {
      type: DT_INT32
    }
  }
}
node {
  name: "conv2d_transpose_3/stack/3"
  op: "Const"
  attr {
    key: "dtype"
    value {
      type: DT_INT32
    }
  }
  attr {
    key: "value"
    value {
      tensor {
        dtype: DT_INT32
        tensor_shape {
        }
        int_val: 16
      }
    }
  }
}
node {
  name: "conv2d_transpose_3/stack"
  op: "Pack"
  input: "conv2d_transpose_3/strided_slice"
  input: "conv2d_transpose_3/mul"
  input: "conv2d_transpose_3/mul_1"
  input: "conv2d_transpose_3/stack/3"
  attr {
    key: "N"
    value {
      i: 4
    }
  }
  attr {
    key: "T"
    value {
      type: DT_INT32
    }
  }
  attr {
    key: "axis"
    value {
      i: 0
    }
  }
}
node {
  name: "conv2d_transpose_3/conv2d_transpose/ReadVariableOp"
  op: "ReadVariableOp"
  input: "conv2d_transpose_3/kernel"
  attr {
    key: "dtype"
    value {
      type: DT_FLOAT
    }
  }
}
node {
  name: "conv2d_transpose_3/conv2d_transpose"
  op: "Conv2DBackpropInput"
  input: "conv2d_transpose_3/stack"
  input: "conv2d_transpose_3/conv2d_transpose/ReadVariableOp"
  input: "conv2d_transpose_2/Relu"
  attr {
    key: "T"
    value {
      type: DT_FLOAT
    }
  }
  attr {
    key: "data_format"
    value {
      s: "NHWC"
    }
  }
  attr {
    key: "dilations"
    value {
      list {
        i: 1
        i: 1
        i: 1
        i: 1
      }
    }
  }
  attr {
    key: "padding"
    value {
      s: "SAME"
    }
  }
  attr {
    key: "strides"
    value {
      list {
        i: 1
        i: 1
        i: 1
        i: 1
      }
    }
  }
  attr {
    key: "use_cudnn_on_gpu"
    value {
      b: true
    }
  }
}
node {
  name: "conv2d_transpose_3/BiasAdd/ReadVariableOp"
  op: "ReadVariableOp"
  input: "conv2d_transpose_3/bias"
  attr {
    key: "dtype"
    value {
      type: DT_FLOAT
    }
  }
}
node {
  name: "conv2d_transpose_3/BiasAdd"
  op: "BiasAdd"
  input: "conv2d_transpose_3/conv2d_transpose"
  input: "conv2d_transpose_3/BiasAdd/ReadVariableOp"
  attr {
    key: "T"
    value {
      type: DT_FLOAT
    }
  }
  attr {
    key: "data_format"
    value {
      s: "NHWC"
    }
  }
}
node {
  name: "conv2d_transpose_3/Relu"
  op: "Relu"
  input: "conv2d_transpose_3/BiasAdd"
  attr {
    key: "T"
    value {
      type: DT_FLOAT
    }
  }
}
node {
  name: "conv2d_3/kernel/Initializer/random_uniform/shape"
  op: "Const"
  attr {
    key: "_class"
    value {
      list {
        s: "loc:@conv2d_3/kernel"
      }
    }
  }
  attr {
    key: "dtype"
    value {
      type: DT_INT32
    }
  }
  attr {
    key: "value"
    value {
      tensor {
        dtype: DT_INT32
        tensor_shape {
          dim {
            size: 4
          }
        }
        tensor_content: "\003\000\000\000\003\000\000\000\020\000\000\000\007\000\000\000"
      }
    }
  }
}
node {
  name: "conv2d_3/kernel/Initializer/random_uniform/min"
  op: "Const"
  attr {
    key: "_class"
    value {
      list {
        s: "loc:@conv2d_3/kernel"
      }
    }
  }
  attr {
    key: "dtype"
    value {
      type: DT_FLOAT
    }
  }
  attr {
    key: "value"
    value {
      tensor {
        dtype: DT_FLOAT
        tensor_shape {
        }
        float_val: -0.17025130987167358
      }
    }
  }
}
node {
  name: "conv2d_3/kernel/Initializer/random_uniform/max"
  op: "Const"
  attr {
    key: "_class"
    value {
      list {
        s: "loc:@conv2d_3/kernel"
      }
    }
  }
  attr {
    key: "dtype"
    value {
      type: DT_FLOAT
    }
  }
  attr {
    key: "value"
    value {
      tensor {
        dtype: DT_FLOAT
        tensor_shape {
        }
        float_val: 0.17025130987167358
      }
    }
  }
}
node {
  name: "conv2d_3/kernel/Initializer/random_uniform/RandomUniform"
  op: "RandomUniform"
  input: "conv2d_3/kernel/Initializer/random_uniform/shape"
  attr {
    key: "T"
    value {
      type: DT_INT32
    }
  }
  attr {
    key: "_class"
    value {
      list {
        s: "loc:@conv2d_3/kernel"
      }
    }
  }
  attr {
    key: "dtype"
    value {
      type: DT_FLOAT
    }
  }
  attr {
    key: "seed"
    value {
      i: 0
    }
  }
  attr {
    key: "seed2"
    value {
      i: 0
    }
  }
}
node {
  name: "conv2d_3/kernel/Initializer/random_uniform/sub"
  op: "Sub"
  input: "conv2d_3/kernel/Initializer/random_uniform/max"
  input: "conv2d_3/kernel/Initializer/random_uniform/min"
  attr {
    key: "T"
    value {
      type: DT_FLOAT
    }
  }
  attr {
    key: "_class"
    value {
      list {
        s: "loc:@conv2d_3/kernel"
      }
    }
  }
}
node {
  name: "conv2d_3/kernel/Initializer/random_uniform/mul"
  op: "Mul"
  input: "conv2d_3/kernel/Initializer/random_uniform/RandomUniform"
  input: "conv2d_3/kernel/Initializer/random_uniform/sub"
  attr {
    key: "T"
    value {
      type: DT_FLOAT
    }
  }
  attr {
    key: "_class"
    value {
      list {
        s: "loc:@conv2d_3/kernel"
      }
    }
  }
}
node {
  name: "conv2d_3/kernel/Initializer/random_uniform"
  op: "Add"
  input: "conv2d_3/kernel/Initializer/random_uniform/mul"
  input: "conv2d_3/kernel/Initializer/random_uniform/min"
  attr {
    key: "T"
    value {
      type: DT_FLOAT
    }
  }
  attr {
    key: "_class"
    value {
      list {
        s: "loc:@conv2d_3/kernel"
      }
    }
  }
}
node {
  name: "conv2d_3/kernel"
  op: "VarHandleOp"
  attr {
    key: "_class"
    value {
      list {
        s: "loc:@conv2d_3/kernel"
      }
    }
  }
  attr {
    key: "container"
    value {
      s: ""
    }
  }
  attr {
    key: "dtype"
    value {
      type: DT_FLOAT
    }
  }
  attr {
    key: "shape"
    value {
      shape {
        dim {
          size: 3
        }
        dim {
          size: 3
        }
        dim {
          size: 16
        }
        dim {
          size: 7
        }
      }
    }
  }
  attr {
    key: "shared_name"
    value {
      s: "conv2d_3/kernel"
    }
  }
}
node {
  name: "conv2d_3/kernel/IsInitialized/VarIsInitializedOp"
  op: "VarIsInitializedOp"
  input: "conv2d_3/kernel"
}
node {
  name: "conv2d_3/kernel/Assign"
  op: "AssignVariableOp"
  input: "conv2d_3/kernel"
  input: "conv2d_3/kernel/Initializer/random_uniform"
  attr {
    key: "_class"
    value {
      list {
        s: "loc:@conv2d_3/kernel"
      }
    }
  }
  attr {
    key: "dtype"
    value {
      type: DT_FLOAT
    }
  }
}
node {
  name: "conv2d_3/kernel/Read/ReadVariableOp"
  op: "ReadVariableOp"
  input: "conv2d_3/kernel"
  attr {
    key: "_class"
    value {
      list {
        s: "loc:@conv2d_3/kernel"
      }
    }
  }
  attr {
    key: "dtype"
    value {
      type: DT_FLOAT
    }
  }
}
node {
  name: "conv2d_3/bias/Initializer/zeros"
  op: "Const"
  attr {
    key: "_class"
    value {
      list {
        s: "loc:@conv2d_3/bias"
      }
    }
  }
  attr {
    key: "dtype"
    value {
      type: DT_FLOAT
    }
  }
  attr {
    key: "value"
    value {
      tensor {
        dtype: DT_FLOAT
        tensor_shape {
          dim {
            size: 7
          }
        }
        float_val: 0.0
      }
    }
  }
}
node {
  name: "conv2d_3/bias"
  op: "VarHandleOp"
  attr {
    key: "_class"
    value {
      list {
        s: "loc:@conv2d_3/bias"
      }
    }
  }
  attr {
    key: "container"
    value {
      s: ""
    }
  }
  attr {
    key: "dtype"
    value {
      type: DT_FLOAT
    }
  }
  attr {
    key: "shape"
    value {
      shape {
        dim {
          size: 7
        }
      }
    }
  }
  attr {
    key: "shared_name"
    value {
      s: "conv2d_3/bias"
    }
  }
}
node {
  name: "conv2d_3/bias/IsInitialized/VarIsInitializedOp"
  op: "VarIsInitializedOp"
  input: "conv2d_3/bias"
}
node {
  name: "conv2d_3/bias/Assign"
  op: "AssignVariableOp"
  input: "conv2d_3/bias"
  input: "conv2d_3/bias/Initializer/zeros"
  attr {
    key: "_class"
    value {
      list {
        s: "loc:@conv2d_3/bias"
      }
    }
  }
  attr {
    key: "dtype"
    value {
      type: DT_FLOAT
    }
  }
}
node {
  name: "conv2d_3/bias/Read/ReadVariableOp"
  op: "ReadVariableOp"
  input: "conv2d_3/bias"
  attr {
    key: "_class"
    value {
      list {
        s: "loc:@conv2d_3/bias"
      }
    }
  }
  attr {
    key: "dtype"
    value {
      type: DT_FLOAT
    }
  }
}
node {
  name: "conv2d_3/dilation_rate"
  op: "Const"
  attr {
    key: "dtype"
    value {
      type: DT_INT32
    }
  }
  attr {
    key: "value"
    value {
      tensor {
        dtype: DT_INT32
        tensor_shape {
          dim {
            size: 2
          }
        }
        tensor_content: "\001\000\000\000\001\000\000\000"
      }
    }
  }
}
node {
  name: "conv2d_3/Conv2D/ReadVariableOp"
  op: "ReadVariableOp"
  input: "conv2d_3/kernel"
  attr {
    key: "dtype"
    value {
      type: DT_FLOAT
    }
  }
}
node {
  name: "conv2d_3/Conv2D"
  op: "Conv2D"
  input: "conv2d_transpose_3/Relu"
  input: "conv2d_3/Conv2D/ReadVariableOp"
  attr {
    key: "T"
    value {
      type: DT_FLOAT
    }
  }
  attr {
    key: "data_format"
    value {
      s: "NHWC"
    }
  }
  attr {
    key: "dilations"
    value {
      list {
        i: 1
        i: 1
        i: 1
        i: 1
      }
    }
  }
  attr {
    key: "padding"
    value {
      s: "SAME"
    }
  }
  attr {
    key: "strides"
    value {
      list {
        i: 1
        i: 1
        i: 1
        i: 1
      }
    }
  }
  attr {
    key: "use_cudnn_on_gpu"
    value {
      b: true
    }
  }
}
node {
  name: "conv2d_3/BiasAdd/ReadVariableOp"
  op: "ReadVariableOp"
  input: "conv2d_3/bias"
  attr {
    key: "dtype"
    value {
      type: DT_FLOAT
    }
  }
}
node {
  name: "conv2d_3/BiasAdd"
  op: "BiasAdd"
  input: "conv2d_3/Conv2D"
  input: "conv2d_3/BiasAdd/ReadVariableOp"
  attr {
    key: "T"
    value {
      type: DT_FLOAT
    }
  }
  attr {
    key: "data_format"
    value {
      s: "NHWC"
    }
  }
}
node {
  name: "conv2d_3/Relu"
  op: "Relu"
  input: "conv2d_3/BiasAdd"
  attr {
    key: "T"
    value {
      type: DT_FLOAT
    }
  }
}
node {
  name: "Placeholder"
  op: "Placeholder"
  attr {
    key: "dtype"
    value {
      type: DT_FLOAT
    }
  }
  attr {
    key: "shape"
    value {
      shape {
        dim {
          size: 3
        }
        dim {
          size: 3
        }
        dim {
          size: 7
        }
        dim {
          size: 16
        }
      }
    }
  }
}
node {
  name: "AssignVariableOp"
  op: "AssignVariableOp"
  input: "conv2d/kernel"
  input: "Placeholder"
  attr {
    key: "dtype"
    value {
      type: DT_FLOAT
    }
  }
}
node {
  name: "ReadVariableOp"
  op: "ReadVariableOp"
  input: "conv2d/kernel"
  input: "^AssignVariableOp"
  attr {
    key: "dtype"
    value {
      type: DT_FLOAT
    }
  }
}
node {
  name: "Placeholder_1"
  op: "Placeholder"
  attr {
    key: "dtype"
    value {
      type: DT_FLOAT
    }
  }
  attr {
    key: "shape"
    value {
      shape {
        dim {
          size: 16
        }
      }
    }
  }
}
node {
  name: "AssignVariableOp_1"
  op: "AssignVariableOp"
  input: "conv2d/bias"
  input: "Placeholder_1"
  attr {
    key: "dtype"
    value {
      type: DT_FLOAT
    }
  }
}
node {
  name: "ReadVariableOp_1"
  op: "ReadVariableOp"
  input: "conv2d/bias"
  input: "^AssignVariableOp_1"
  attr {
    key: "dtype"
    value {
      type: DT_FLOAT
    }
  }
}
node {
  name: "Placeholder_2"
  op: "Placeholder"
  attr {
    key: "dtype"
    value {
      type: DT_FLOAT
    }
  }
  attr {
    key: "shape"
    value {
      shape {
        dim {
          size: 3
        }
        dim {
          size: 3
        }
        dim {
          size: 16
        }
        dim {
          size: 32
        }
      }
    }
  }
}
node {
  name: "AssignVariableOp_2"
  op: "AssignVariableOp"
  input: "conv2d_1/kernel"
  input: "Placeholder_2"
  attr {
    key: "dtype"
    value {
      type: DT_FLOAT
    }
  }
}
node {
  name: "ReadVariableOp_2"
  op: "ReadVariableOp"
  input: "conv2d_1/kernel"
  input: "^AssignVariableOp_2"
  attr {
    key: "dtype"
    value {
      type: DT_FLOAT
    }
  }
}
node {
  name: "Placeholder_3"
  op: "Placeholder"
  attr {
    key: "dtype"
    value {
      type: DT_FLOAT
    }
  }
  attr {
    key: "shape"
    value {
      shape {
        dim {
          size: 32
        }
      }
    }
  }
}
node {
  name: "AssignVariableOp_3"
  op: "AssignVariableOp"
  input: "conv2d_1/bias"
  input: "Placeholder_3"
  attr {
    key: "dtype"
    value {
      type: DT_FLOAT
    }
  }
}
node {
  name: "ReadVariableOp_3"
  op: "ReadVariableOp"
  input: "conv2d_1/bias"
  input: "^AssignVariableOp_3"
  attr {
    key: "dtype"
    value {
      type: DT_FLOAT
    }
  }
}
node {
  name: "Placeholder_4"
  op: "Placeholder"
  attr {
    key: "dtype"
    value {
      type: DT_FLOAT
    }
  }
  attr {
    key: "shape"
    value {
      shape {
        dim {
          size: 3
        }
        dim {
          size: 3
        }
        dim {
          size: 32
        }
        dim {
          size: 64
        }
      }
    }
  }
}
node {
  name: "AssignVariableOp_4"
  op: "AssignVariableOp"
  input: "conv2d_2/kernel"
  input: "Placeholder_4"
  attr {
    key: "dtype"
    value {
      type: DT_FLOAT
    }
  }
}
node {
  name: "ReadVariableOp_4"
  op: "ReadVariableOp"
  input: "conv2d_2/kernel"
  input: "^AssignVariableOp_4"
  attr {
    key: "dtype"
    value {
      type: DT_FLOAT
    }
  }
}
node {
  name: "Placeholder_5"
  op: "Placeholder"
  attr {
    key: "dtype"
    value {
      type: DT_FLOAT
    }
  }
  attr {
    key: "shape"
    value {
      shape {
        dim {
          size: 64
        }
      }
    }
  }
}
node {
  name: "AssignVariableOp_5"
  op: "AssignVariableOp"
  input: "conv2d_2/bias"
  input: "Placeholder_5"
  attr {
    key: "dtype"
    value {
      type: DT_FLOAT
    }
  }
}
node {
  name: "ReadVariableOp_5"
  op: "ReadVariableOp"
  input: "conv2d_2/bias"
  input: "^AssignVariableOp_5"
  attr {
    key: "dtype"
    value {
      type: DT_FLOAT
    }
  }
}
node {
  name: "Placeholder_6"
  op: "Placeholder"
  attr {
    key: "dtype"
    value {
      type: DT_FLOAT
    }
  }
  attr {
    key: "shape"
    value {
      shape {
        dim {
          size: 3
        }
        dim {
          size: 3
        }
        dim {
          size: 128
        }
        dim {
          size: 64
        }
      }
    }
  }
}
node {
  name: "AssignVariableOp_6"
  op: "AssignVariableOp"
  input: "conv2d_transpose/kernel"
  input: "Placeholder_6"
  attr {
    key: "dtype"
    value {
      type: DT_FLOAT
    }
  }
}
node {
  name: "ReadVariableOp_6"
  op: "ReadVariableOp"
  input: "conv2d_transpose/kernel"
  input: "^AssignVariableOp_6"
  attr {
    key: "dtype"
    value {
      type: DT_FLOAT
    }
  }
}
node {
  name: "Placeholder_7"
  op: "Placeholder"
  attr {
    key: "dtype"
    value {
      type: DT_FLOAT
    }
  }
  attr {
    key: "shape"
    value {
      shape {
        dim {
          size: 128
        }
      }
    }
  }
}
node {
  name: "AssignVariableOp_7"
  op: "AssignVariableOp"
  input: "conv2d_transpose/bias"
  input: "Placeholder_7"
  attr {
    key: "dtype"
    value {
      type: DT_FLOAT
    }
  }
}
node {
  name: "ReadVariableOp_7"
  op: "ReadVariableOp"
  input: "conv2d_transpose/bias"
  input: "^AssignVariableOp_7"
  attr {
    key: "dtype"
    value {
      type: DT_FLOAT
    }
  }
}
node {
  name: "Placeholder_8"
  op: "Placeholder"
  attr {
    key: "dtype"
    value {
      type: DT_FLOAT
    }
  }
  attr {
    key: "shape"
    value {
      shape {
        dim {
          size: 3
        }
        dim {
          size: 3
        }
        dim {
          size: 64
        }
        dim {
          size: 128
        }
      }
    }
  }
}
node {
  name: "AssignVariableOp_8"
  op: "AssignVariableOp"
  input: "conv2d_transpose_1/kernel"
  input: "Placeholder_8"
  attr {
    key: "dtype"
    value {
      type: DT_FLOAT
    }
  }
}
node {
  name: "ReadVariableOp_8"
  op: "ReadVariableOp"
  input: "conv2d_transpose_1/kernel"
  input: "^AssignVariableOp_8"
  attr {
    key: "dtype"
    value {
      type: DT_FLOAT
    }
  }
}
node {
  name: "Placeholder_9"
  op: "Placeholder"
  attr {
    key: "dtype"
    value {
      type: DT_FLOAT
    }
  }
  attr {
    key: "shape"
    value {
      shape {
        dim {
          size: 64
        }
      }
    }
  }
}
node {
  name: "AssignVariableOp_9"
  op: "AssignVariableOp"
  input: "conv2d_transpose_1/bias"
  input: "Placeholder_9"
  attr {
    key: "dtype"
    value {
      type: DT_FLOAT
    }
  }
}
node {
  name: "ReadVariableOp_9"
  op: "ReadVariableOp"
  input: "conv2d_transpose_1/bias"
  input: "^AssignVariableOp_9"
  attr {
    key: "dtype"
    value {
      type: DT_FLOAT
    }
  }
}
node {
  name: "Placeholder_10"
  op: "Placeholder"
  attr {
    key: "dtype"
    value {
      type: DT_FLOAT
    }
  }
  attr {
    key: "shape"
    value {
      shape {
        dim {
          size: 3
        }
        dim {
          size: 3
        }
        dim {
          size: 32
        }
        dim {
          size: 64
        }
      }
    }
  }
}
node {
  name: "AssignVariableOp_10"
  op: "AssignVariableOp"
  input: "conv2d_transpose_2/kernel"
  input: "Placeholder_10"
  attr {
    key: "dtype"
    value {
      type: DT_FLOAT
    }
  }
}
node {
  name: "ReadVariableOp_10"
  op: "ReadVariableOp"
  input: "conv2d_transpose_2/kernel"
  input: "^AssignVariableOp_10"
  attr {
    key: "dtype"
    value {
      type: DT_FLOAT
    }
  }
}
node {
  name: "Placeholder_11"
  op: "Placeholder"
  attr {
    key: "dtype"
    value {
      type: DT_FLOAT
    }
  }
  attr {
    key: "shape"
    value {
      shape {
        dim {
          size: 32
        }
      }
    }
  }
}
node {
  name: "AssignVariableOp_11"
  op: "AssignVariableOp"
  input: "conv2d_transpose_2/bias"
  input: "Placeholder_11"
  attr {
    key: "dtype"
    value {
      type: DT_FLOAT
    }
  }
}
node {
  name: "ReadVariableOp_11"
  op: "ReadVariableOp"
  input: "conv2d_transpose_2/bias"
  input: "^AssignVariableOp_11"
  attr {
    key: "dtype"
    value {
      type: DT_FLOAT
    }
  }
}
node {
  name: "Placeholder_12"
  op: "Placeholder"
  attr {
    key: "dtype"
    value {
      type: DT_FLOAT
    }
  }
  attr {
    key: "shape"
    value {
      shape {
        dim {
          size: 3
        }
        dim {
          size: 3
        }
        dim {
          size: 16
        }
        dim {
          size: 32
        }
      }
    }
  }
}
node {
  name: "AssignVariableOp_12"
  op: "AssignVariableOp"
  input: "conv2d_transpose_3/kernel"
  input: "Placeholder_12"
  attr {
    key: "dtype"
    value {
      type: DT_FLOAT
    }
  }
}
node {
  name: "ReadVariableOp_12"
  op: "ReadVariableOp"
  input: "conv2d_transpose_3/kernel"
  input: "^AssignVariableOp_12"
  attr {
    key: "dtype"
    value {
      type: DT_FLOAT
    }
  }
}
node {
  name: "Placeholder_13"
  op: "Placeholder"
  attr {
    key: "dtype"
    value {
      type: DT_FLOAT
    }
  }
  attr {
    key: "shape"
    value {
      shape {
        dim {
          size: 16
        }
      }
    }
  }
}
node {
  name: "AssignVariableOp_13"
  op: "AssignVariableOp"
  input: "conv2d_transpose_3/bias"
  input: "Placeholder_13"
  attr {
    key: "dtype"
    value {
      type: DT_FLOAT
    }
  }
}
node {
  name: "ReadVariableOp_13"
  op: "ReadVariableOp"
  input: "conv2d_transpose_3/bias"
  input: "^AssignVariableOp_13"
  attr {
    key: "dtype"
    value {
      type: DT_FLOAT
    }
  }
}
node {
  name: "Placeholder_14"
  op: "Placeholder"
  attr {
    key: "dtype"
    value {
      type: DT_FLOAT
    }
  }
  attr {
    key: "shape"
    value {
      shape {
        dim {
          size: 3
        }
        dim {
          size: 3
        }
        dim {
          size: 16
        }
        dim {
          size: 7
        }
      }
    }
  }
}
node {
  name: "AssignVariableOp_14"
  op: "AssignVariableOp"
  input: "conv2d_3/kernel"
  input: "Placeholder_14"
  attr {
    key: "dtype"
    value {
      type: DT_FLOAT
    }
  }
}
node {
  name: "ReadVariableOp_14"
  op: "ReadVariableOp"
  input: "conv2d_3/kernel"
  input: "^AssignVariableOp_14"
  attr {
    key: "dtype"
    value {
      type: DT_FLOAT
    }
  }
}
node {
  name: "Placeholder_15"
  op: "Placeholder"
  attr {
    key: "dtype"
    value {
      type: DT_FLOAT
    }
  }
  attr {
    key: "shape"
    value {
      shape {
        dim {
          size: 7
        }
      }
    }
  }
}
node {
  name: "AssignVariableOp_15"
  op: "AssignVariableOp"
  input: "conv2d_3/bias"
  input: "Placeholder_15"
  attr {
    key: "dtype"
    value {
      type: DT_FLOAT
    }
  }
}
node {
  name: "ReadVariableOp_15"
  op: "ReadVariableOp"
  input: "conv2d_3/bias"
  input: "^AssignVariableOp_15"
  attr {
    key: "dtype"
    value {
      type: DT_FLOAT
    }
  }
}
node {
  name: "VarIsInitializedOp"
  op: "VarIsInitializedOp"
  input: "conv2d/kernel"
}
node {
  name: "VarIsInitializedOp_1"
  op: "VarIsInitializedOp"
  input: "conv2d/bias"
}
node {
  name: "VarIsInitializedOp_2"
  op: "VarIsInitializedOp"
  input: "conv2d_1/kernel"
}
node {
  name: "VarIsInitializedOp_3"
  op: "VarIsInitializedOp"
  input: "conv2d_1/bias"
}
node {
  name: "VarIsInitializedOp_4"
  op: "VarIsInitializedOp"
  input: "conv2d_2/kernel"
}
node {
  name: "VarIsInitializedOp_5"
  op: "VarIsInitializedOp"
  input: "conv2d_2/bias"
}
node {
  name: "VarIsInitializedOp_6"
  op: "VarIsInitializedOp"
  input: "conv2d_transpose/kernel"
}
node {
  name: "VarIsInitializedOp_7"
  op: "VarIsInitializedOp"
  input: "conv2d_transpose/bias"
}
node {
  name: "VarIsInitializedOp_8"
  op: "VarIsInitializedOp"
  input: "conv2d_transpose_1/kernel"
}
node {
  name: "VarIsInitializedOp_9"
  op: "VarIsInitializedOp"
  input: "conv2d_transpose_1/bias"
}
node {
  name: "VarIsInitializedOp_10"
  op: "VarIsInitializedOp"
  input: "conv2d_transpose_2/kernel"
}
node {
  name: "VarIsInitializedOp_11"
  op: "VarIsInitializedOp"
  input: "conv2d_transpose_2/bias"
}
node {
  name: "VarIsInitializedOp_12"
  op: "VarIsInitializedOp"
  input: "conv2d_transpose_3/kernel"
}
node {
  name: "VarIsInitializedOp_13"
  op: "VarIsInitializedOp"
  input: "conv2d_transpose_3/bias"
}
node {
  name: "VarIsInitializedOp_14"
  op: "VarIsInitializedOp"
  input: "conv2d_3/kernel"
}
node {
  name: "VarIsInitializedOp_15"
  op: "VarIsInitializedOp"
  input: "conv2d_3/bias"
}
node {
  name: "init"
  op: "NoOp"
  input: "^conv2d/bias/Assign"
  input: "^conv2d/kernel/Assign"
  input: "^conv2d_1/bias/Assign"
  input: "^conv2d_1/kernel/Assign"
  input: "^conv2d_2/bias/Assign"
  input: "^conv2d_2/kernel/Assign"
  input: "^conv2d_3/bias/Assign"
  input: "^conv2d_3/kernel/Assign"
  input: "^conv2d_transpose/bias/Assign"
  input: "^conv2d_transpose/kernel/Assign"
  input: "^conv2d_transpose_1/bias/Assign"
  input: "^conv2d_transpose_1/kernel/Assign"
  input: "^conv2d_transpose_2/bias/Assign"
  input: "^conv2d_transpose_2/kernel/Assign"
  input: "^conv2d_transpose_3/bias/Assign"
  input: "^conv2d_transpose_3/kernel/Assign"
}
node {
  name: "Adam/iterations/Initializer/initial_value"
  op: "Const"
  attr {
    key: "dtype"
    value {
      type: DT_INT64
    }
  }
  attr {
    key: "value"
    value {
      tensor {
        dtype: DT_INT64
        tensor_shape {
        }
        int64_val: 0
      }
    }
  }
}
node {
  name: "Adam/iterations"
  op: "VarHandleOp"
  attr {
    key: "container"
    value {
      s: ""
    }
  }
  attr {
    key: "dtype"
    value {
      type: DT_INT64
    }
  }
  attr {
    key: "shape"
    value {
      shape {
      }
    }
  }
  attr {
    key: "shared_name"
    value {
      s: "Adam/iterations"
    }
  }
}
node {
  name: "Adam/iterations/IsInitialized/VarIsInitializedOp"
  op: "VarIsInitializedOp"
  input: "Adam/iterations"
}
node {
  name: "Adam/iterations/Assign"
  op: "AssignVariableOp"
  input: "Adam/iterations"
  input: "Adam/iterations/Initializer/initial_value"
  attr {
    key: "_class"
    value {
      list {
        s: "loc:@Adam/iterations"
      }
    }
  }
  attr {
    key: "dtype"
    value {
      type: DT_INT64
    }
  }
}
node {
  name: "Adam/iterations/Read/ReadVariableOp"
  op: "ReadVariableOp"
  input: "Adam/iterations"
  attr {
    key: "_class"
    value {
      list {
        s: "loc:@Adam/iterations"
      }
    }
  }
  attr {
    key: "dtype"
    value {
      type: DT_INT64
    }
  }
}
node {
  name: "Adam/lr/Initializer/initial_value"
  op: "Const"
  attr {
    key: "dtype"
    value {
      type: DT_FLOAT
    }
  }
  attr {
    key: "value"
    value {
      tensor {
        dtype: DT_FLOAT
        tensor_shape {
        }
        float_val: 0.0010000000474974513
      }
    }
  }
}
node {
  name: "Adam/lr"
  op: "VarHandleOp"
  attr {
    key: "container"
    value {
      s: ""
    }
  }
  attr {
    key: "dtype"
    value {
      type: DT_FLOAT
    }
  }
  attr {
    key: "shape"
    value {
      shape {
      }
    }
  }
  attr {
    key: "shared_name"
    value {
      s: "Adam/lr"
    }
  }
}
node {
  name: "Adam/lr/IsInitialized/VarIsInitializedOp"
  op: "VarIsInitializedOp"
  input: "Adam/lr"
}
node {
  name: "Adam/lr/Assign"
  op: "AssignVariableOp"
  input: "Adam/lr"
  input: "Adam/lr/Initializer/initial_value"
  attr {
    key: "_class"
    value {
      list {
        s: "loc:@Adam/lr"
      }
    }
  }
  attr {
    key: "dtype"
    value {
      type: DT_FLOAT
    }
  }
}
node {
  name: "Adam/lr/Read/ReadVariableOp"
  op: "ReadVariableOp"
  input: "Adam/lr"
  attr {
    key: "_class"
    value {
      list {
        s: "loc:@Adam/lr"
      }
    }
  }
  attr {
    key: "dtype"
    value {
      type: DT_FLOAT
    }
  }
}
node {
  name: "Adam/beta_1/Initializer/initial_value"
  op: "Const"
  attr {
    key: "dtype"
    value {
      type: DT_FLOAT
    }
  }
  attr {
    key: "value"
    value {
      tensor {
        dtype: DT_FLOAT
        tensor_shape {
        }
        float_val: 0.8999999761581421
      }
    }
  }
}
node {
  name: "Adam/beta_1"
  op: "VarHandleOp"
  attr {
    key: "container"
    value {
      s: ""
    }
  }
  attr {
    key: "dtype"
    value {
      type: DT_FLOAT
    }
  }
  attr {
    key: "shape"
    value {
      shape {
      }
    }
  }
  attr {
    key: "shared_name"
    value {
      s: "Adam/beta_1"
    }
  }
}
node {
  name: "Adam/beta_1/IsInitialized/VarIsInitializedOp"
  op: "VarIsInitializedOp"
  input: "Adam/beta_1"
}
node {
  name: "Adam/beta_1/Assign"
  op: "AssignVariableOp"
  input: "Adam/beta_1"
  input: "Adam/beta_1/Initializer/initial_value"
  attr {
    key: "_class"
    value {
      list {
        s: "loc:@Adam/beta_1"
      }
    }
  }
  attr {
    key: "dtype"
    value {
      type: DT_FLOAT
    }
  }
}
node {
  name: "Adam/beta_1/Read/ReadVariableOp"
  op: "ReadVariableOp"
  input: "Adam/beta_1"
  attr {
    key: "_class"
    value {
      list {
        s: "loc:@Adam/beta_1"
      }
    }
  }
  attr {
    key: "dtype"
    value {
      type: DT_FLOAT
    }
  }
}
node {
  name: "Adam/beta_2/Initializer/initial_value"
  op: "Const"
  attr {
    key: "dtype"
    value {
      type: DT_FLOAT
    }
  }
  attr {
    key: "value"
    value {
      tensor {
        dtype: DT_FLOAT
        tensor_shape {
        }
        float_val: 0.9990000128746033
      }
    }
  }
}
node {
  name: "Adam/beta_2"
  op: "VarHandleOp"
  attr {
    key: "container"
    value {
      s: ""
    }
  }
  attr {
    key: "dtype"
    value {
      type: DT_FLOAT
    }
  }
  attr {
    key: "shape"
    value {
      shape {
      }
    }
  }
  attr {
    key: "shared_name"
    value {
      s: "Adam/beta_2"
    }
  }
}
node {
  name: "Adam/beta_2/IsInitialized/VarIsInitializedOp"
  op: "VarIsInitializedOp"
  input: "Adam/beta_2"
}
node {
  name: "Adam/beta_2/Assign"
  op: "AssignVariableOp"
  input: "Adam/beta_2"
  input: "Adam/beta_2/Initializer/initial_value"
  attr {
    key: "_class"
    value {
      list {
        s: "loc:@Adam/beta_2"
      }
    }
  }
  attr {
    key: "dtype"
    value {
      type: DT_FLOAT
    }
  }
}
node {
  name: "Adam/beta_2/Read/ReadVariableOp"
  op: "ReadVariableOp"
  input: "Adam/beta_2"
  attr {
    key: "_class"
    value {
      list {
        s: "loc:@Adam/beta_2"
      }
    }
  }
  attr {
    key: "dtype"
    value {
      type: DT_FLOAT
    }
  }
}
node {
  name: "Adam/decay/Initializer/initial_value"
  op: "Const"
  attr {
    key: "dtype"
    value {
      type: DT_FLOAT
    }
  }
  attr {
    key: "value"
    value {
      tensor {
        dtype: DT_FLOAT
        tensor_shape {
        }
        float_val: 0.0
      }
    }
  }
}
node {
  name: "Adam/decay"
  op: "VarHandleOp"
  attr {
    key: "container"
    value {
      s: ""
    }
  }
  attr {
    key: "dtype"
    value {
      type: DT_FLOAT
    }
  }
  attr {
    key: "shape"
    value {
      shape {
      }
    }
  }
  attr {
    key: "shared_name"
    value {
      s: "Adam/decay"
    }
  }
}
node {
  name: "Adam/decay/IsInitialized/VarIsInitializedOp"
  op: "VarIsInitializedOp"
  input: "Adam/decay"
}
node {
  name: "Adam/decay/Assign"
  op: "AssignVariableOp"
  input: "Adam/decay"
  input: "Adam/decay/Initializer/initial_value"
  attr {
    key: "_class"
    value {
      list {
        s: "loc:@Adam/decay"
      }
    }
  }
  attr {
    key: "dtype"
    value {
      type: DT_FLOAT
    }
  }
}
node {
  name: "Adam/decay/Read/ReadVariableOp"
  op: "ReadVariableOp"
  input: "Adam/decay"
  attr {
    key: "_class"
    value {
      list {
        s: "loc:@Adam/decay"
      }
    }
  }
  attr {
    key: "dtype"
    value {
      type: DT_FLOAT
    }
  }
}
node {
  name: "conv2d_3_target"
  op: "Placeholder"
  attr {
    key: "dtype"
    value {
      type: DT_FLOAT
    }
  }
  attr {
    key: "shape"
    value {
      shape {
        dim {
          size: -1
        }
        dim {
          size: -1
        }
        dim {
          size: -1
        }
        dim {
          size: -1
        }
      }
    }
  }
}
node {
  name: "conv2d_3_sample_weights/input"
  op: "Const"
  attr {
    key: "dtype"
    value {
      type: DT_FLOAT
    }
  }
  attr {
    key: "value"
    value {
      tensor {
        dtype: DT_FLOAT
        tensor_shape {
          dim {
            size: 1
          }
        }
        float_val: 1.0
      }
    }
  }
}
node {
  name: "conv2d_3_sample_weights"
  op: "PlaceholderWithDefault"
  input: "conv2d_3_sample_weights/input"
  attr {
    key: "dtype"
    value {
      type: DT_FLOAT
    }
  }
  attr {
    key: "shape"
    value {
      shape {
        dim {
          size: -1
        }
      }
    }
  }
}
node {
  name: "loss/conv2d_3_loss/sub"
  op: "Sub"
  input: "conv2d_3/Relu"
  input: "conv2d_3_target"
  attr {
    key: "T"
    value {
      type: DT_FLOAT
    }
  }
}
node {
  name: "loss/conv2d_3_loss/Square"
  op: "Square"
  input: "loss/conv2d_3_loss/sub"
  attr {
    key: "T"
    value {
      type: DT_FLOAT
    }
  }
}
node {
  name: "loss/conv2d_3_loss/Mean/reduction_indices"
  op: "Const"
  attr {
    key: "dtype"
    value {
      type: DT_INT32
    }
  }
  attr {
    key: "value"
    value {
      tensor {
        dtype: DT_INT32
        tensor_shape {
        }
        int_val: -1
      }
    }
  }
}
node {
  name: "loss/conv2d_3_loss/Mean"
  op: "Mean"
  input: "loss/conv2d_3_loss/Square"
  input: "loss/conv2d_3_loss/Mean/reduction_indices"
  attr {
    key: "T"
    value {
      type: DT_FLOAT
    }
  }
  attr {
    key: "Tidx"
    value {
      type: DT_INT32
    }
  }
  attr {
    key: "keep_dims"
    value {
      b: false
    }
  }
}
node {
  name: "loss/conv2d_3_loss/Mean_1/reduction_indices"
  op: "Const"
  attr {
    key: "dtype"
    value {
      type: DT_INT32
    }
  }
  attr {
    key: "value"
    value {
      tensor {
        dtype: DT_INT32
        tensor_shape {
          dim {
            size: 2
          }
        }
        tensor_content: "\001\000\000\000\002\000\000\000"
      }
    }
  }
}
node {
  name: "loss/conv2d_3_loss/Mean_1"
  op: "Mean"
  input: "loss/conv2d_3_loss/Mean"
  input: "loss/conv2d_3_loss/Mean_1/reduction_indices"
  attr {
    key: "T"
    value {
      type: DT_FLOAT
    }
  }
  attr {
    key: "Tidx"
    value {
      type: DT_INT32
    }
  }
  attr {
    key: "keep_dims"
    value {
      b: false
    }
  }
}
node {
  name: "loss/conv2d_3_loss/mul"
  op: "Mul"
  input: "loss/conv2d_3_loss/Mean_1"
  input: "conv2d_3_sample_weights"
  attr {
    key: "T"
    value {
      type: DT_FLOAT
    }
  }
}
node {
  name: "loss/conv2d_3_loss/NotEqual/y"
  op: "Const"
  attr {
    key: "dtype"
    value {
      type: DT_FLOAT
    }
  }
  attr {
    key: "value"
    value {
      tensor {
        dtype: DT_FLOAT
        tensor_shape {
        }
        float_val: 0.0
      }
    }
  }
}
node {
  name: "loss/conv2d_3_loss/NotEqual"
  op: "NotEqual"
  input: "conv2d_3_sample_weights"
  input: "loss/conv2d_3_loss/NotEqual/y"
  attr {
    key: "T"
    value {
      type: DT_FLOAT
    }
  }
}
node {
  name: "loss/conv2d_3_loss/Cast"
  op: "Cast"
  input: "loss/conv2d_3_loss/NotEqual"
  attr {
    key: "DstT"
    value {
      type: DT_FLOAT
    }
  }
  attr {
    key: "SrcT"
    value {
      type: DT_BOOL
    }
  }
}
node {
  name: "loss/conv2d_3_loss/Const"
  op: "Const"
  attr {
    key: "dtype"
    value {
      type: DT_INT32
    }
  }
  attr {
    key: "value"
    value {
      tensor {
        dtype: DT_INT32
        tensor_shape {
          dim {
            size: 1
          }
        }
        int_val: 0
      }
    }
  }
}
node {
  name: "loss/conv2d_3_loss/Mean_2"
  op: "Mean"
  input: "loss/conv2d_3_loss/Cast"
  input: "loss/conv2d_3_loss/Const"
  attr {
    key: "T"
    value {
      type: DT_FLOAT
    }
  }
  attr {
    key: "Tidx"
    value {
      type: DT_INT32
    }
  }
  attr {
    key: "keep_dims"
    value {
      b: false
    }
  }
}
node {
  name: "loss/conv2d_3_loss/truediv"
  op: "RealDiv"
  input: "loss/conv2d_3_loss/mul"
  input: "loss/conv2d_3_loss/Mean_2"
  attr {
    key: "T"
    value {
      type: DT_FLOAT
    }
  }
}
node {
  name: "loss/conv2d_3_loss/Const_1"
  op: "Const"
  attr {
    key: "dtype"
    value {
      type: DT_INT32
    }
  }
  attr {
    key: "value"
    value {
      tensor {
        dtype: DT_INT32
        tensor_shape {
          dim {
            size: 1
          }
        }
        int_val: 0
      }
    }
  }
}
node {
  name: "loss/conv2d_3_loss/Mean_3"
  op: "Mean"
  input: "loss/conv2d_3_loss/truediv"
  input: "loss/conv2d_3_loss/Const_1"
  attr {
    key: "T"
    value {
      type: DT_FLOAT
    }
  }
  attr {
    key: "Tidx"
    value {
      type: DT_INT32
    }
  }
  attr {
    key: "keep_dims"
    value {
      b: false
    }
  }
}
node {
  name: "loss/mul/x"
  op: "Const"
  attr {
    key: "dtype"
    value {
      type: DT_FLOAT
    }
  }
  attr {
    key: "value"
    value {
      tensor {
        dtype: DT_FLOAT
        tensor_shape {
        }
        float_val: 1.0
      }
    }
  }
}
node {
  name: "loss/mul"
  op: "Mul"
  input: "loss/mul/x"
  input: "loss/conv2d_3_loss/Mean_3"
  attr {
    key: "T"
    value {
      type: DT_FLOAT
    }
  }
}
node {
  name: "metrics/mean_absolute_error/sub"
  op: "Sub"
  input: "conv2d_3/Relu"
  input: "conv2d_3_target"
  attr {
    key: "T"
    value {
      type: DT_FLOAT
    }
  }
}
node {
  name: "metrics/mean_absolute_error/Abs"
  op: "Abs"
  input: "metrics/mean_absolute_error/sub"
  attr {
    key: "T"
    value {
      type: DT_FLOAT
    }
  }
}
node {
  name: "metrics/mean_absolute_error/Mean/reduction_indices"
  op: "Const"
  attr {
    key: "dtype"
    value {
      type: DT_INT32
    }
  }
  attr {
    key: "value"
    value {
      tensor {
        dtype: DT_INT32
        tensor_shape {
        }
        int_val: -1
      }
    }
  }
}
node {
  name: "metrics/mean_absolute_error/Mean"
  op: "Mean"
  input: "metrics/mean_absolute_error/Abs"
  input: "metrics/mean_absolute_error/Mean/reduction_indices"
  attr {
    key: "T"
    value {
      type: DT_FLOAT
    }
  }
  attr {
    key: "Tidx"
    value {
      type: DT_INT32
    }
  }
  attr {
    key: "keep_dims"
    value {
      b: false
    }
  }
}
node {
  name: "metrics/mean_absolute_error/Const"
  op: "Const"
  attr {
    key: "dtype"
    value {
      type: DT_INT32
    }
  }
  attr {
    key: "value"
    value {
      tensor {
        dtype: DT_INT32
        tensor_shape {
          dim {
            size: 3
          }
        }
        tensor_content: "\000\000\000\000\001\000\000\000\002\000\000\000"
      }
    }
  }
}
node {
  name: "metrics/mean_absolute_error/Mean_1"
  op: "Mean"
  input: "metrics/mean_absolute_error/Mean"
  input: "metrics/mean_absolute_error/Const"
  attr {
    key: "T"
    value {
      type: DT_FLOAT
    }
  }
  attr {
    key: "Tidx"
    value {
      type: DT_INT32
    }
  }
  attr {
    key: "keep_dims"
    value {
      b: false
    }
  }
}
node {
  name: "training/Adam/gradients/Shape"
  op: "Const"
  attr {
    key: "_class"
    value {
      list {
        s: "loc:@loss/mul"
      }
    }
  }
  attr {
    key: "dtype"
    value {
      type: DT_INT32
    }
  }
  attr {
    key: "value"
    value {
      tensor {
        dtype: DT_INT32
        tensor_shape {
          dim {
          }
        }
      }
    }
  }
}
node {
  name: "training/Adam/gradients/grad_ys_0"
  op: "Const"
  attr {
    key: "_class"
    value {
      list {
        s: "loc:@loss/mul"
      }
    }
  }
  attr {
    key: "dtype"
    value {
      type: DT_FLOAT
    }
  }
  attr {
    key: "value"
    value {
      tensor {
        dtype: DT_FLOAT
        tensor_shape {
        }
        float_val: 1.0
      }
    }
  }
}
node {
  name: "training/Adam/gradients/Fill"
  op: "Fill"
  input: "training/Adam/gradients/Shape"
  input: "training/Adam/gradients/grad_ys_0"
  attr {
    key: "T"
    value {
      type: DT_FLOAT
    }
  }
  attr {
    key: "_class"
    value {
      list {
        s: "loc:@loss/mul"
      }
    }
  }
  attr {
    key: "index_type"
    value {
      type: DT_INT32
    }
  }
}
node {
  name: "training/Adam/gradients/loss/mul_grad/Mul"
  op: "Mul"
  input: "training/Adam/gradients/Fill"
  input: "loss/conv2d_3_loss/Mean_3"
  attr {
    key: "T"
    value {
      type: DT_FLOAT
    }
  }
  attr {
    key: "_class"
    value {
      list {
        s: "loc:@loss/mul"
      }
    }
  }
}
node {
  name: "training/Adam/gradients/loss/mul_grad/Mul_1"
  op: "Mul"
  input: "training/Adam/gradients/Fill"
  input: "loss/mul/x"
  attr {
    key: "T"
    value {
      type: DT_FLOAT
    }
  }
  attr {
    key: "_class"
    value {
      list {
        s: "loc:@loss/mul"
      }
    }
  }
}
node {
  name: "training/Adam/gradients/loss/conv2d_3_loss/Mean_3_grad/Reshape/shape"
  op: "Const"
  attr {
    key: "_class"
    value {
      list {
        s: "loc:@loss/conv2d_3_loss/Mean_3"
      }
    }
  }
  attr {
    key: "dtype"
    value {
      type: DT_INT32
    }
  }
  attr {
    key: "value"
    value {
      tensor {
        dtype: DT_INT32
        tensor_shape {
          dim {
            size: 1
          }
        }
        int_val: 1
      }
    }
  }
}
node {
  name: "training/Adam/gradients/loss/conv2d_3_loss/Mean_3_grad/Reshape"
  op: "Reshape"
  input: "training/Adam/gradients/loss/mul_grad/Mul_1"
  input: "training/Adam/gradients/loss/conv2d_3_loss/Mean_3_grad/Reshape/shape"
  attr {
    key: "T"
    value {
      type: DT_FLOAT
    }
  }
  attr {
    key: "Tshape"
    value {
      type: DT_INT32
    }
  }
  attr {
    key: "_class"
    value {
      list {
        s: "loc:@loss/conv2d_3_loss/Mean_3"
      }
    }
  }
}
node {
  name: "training/Adam/gradients/loss/conv2d_3_loss/Mean_3_grad/Shape"
  op: "Shape"
  input: "loss/conv2d_3_loss/truediv"
  attr {
    key: "T"
    value {
      type: DT_FLOAT
    }
  }
  attr {
    key: "_class"
    value {
      list {
        s: "loc:@loss/conv2d_3_loss/Mean_3"
      }
    }
  }
  attr {
    key: "out_type"
    value {
      type: DT_INT32
    }
  }
}
node {
  name: "training/Adam/gradients/loss/conv2d_3_loss/Mean_3_grad/Tile"
  op: "Tile"
  input: "training/Adam/gradients/loss/conv2d_3_loss/Mean_3_grad/Reshape"
  input: "training/Adam/gradients/loss/conv2d_3_loss/Mean_3_grad/Shape"
  attr {
    key: "T"
    value {
      type: DT_FLOAT
    }
  }
  attr {
    key: "Tmultiples"
    value {
      type: DT_INT32
    }
  }
  attr {
    key: "_class"
    value {
      list {
        s: "loc:@loss/conv2d_3_loss/Mean_3"
      }
    }
  }
}
node {
  name: "training/Adam/gradients/loss/conv2d_3_loss/Mean_3_grad/Shape_1"
  op: "Shape"
  input: "loss/conv2d_3_loss/truediv"
  attr {
    key: "T"
    value {
      type: DT_FLOAT
    }
  }
  attr {
    key: "_class"
    value {
      list {
        s: "loc:@loss/conv2d_3_loss/Mean_3"
      }
    }
  }
  attr {
    key: "out_type"
    value {
      type: DT_INT32
    }
  }
}
node {
  name: "training/Adam/gradients/loss/conv2d_3_loss/Mean_3_grad/Shape_2"
  op: "Const"
  attr {
    key: "_class"
    value {
      list {
        s: "loc:@loss/conv2d_3_loss/Mean_3"
      }
    }
  }
  attr {
    key: "dtype"
    value {
      type: DT_INT32
    }
  }
  attr {
    key: "value"
    value {
      tensor {
        dtype: DT_INT32
        tensor_shape {
          dim {
          }
        }
      }
    }
  }
}
node {
  name: "training/Adam/gradients/loss/conv2d_3_loss/Mean_3_grad/Const"
  op: "Const"
  attr {
    key: "_class"
    value {
      list {
        s: "loc:@loss/conv2d_3_loss/Mean_3"
      }
    }
  }
  attr {
    key: "dtype"
    value {
      type: DT_INT32
    }
  }
  attr {
    key: "value"
    value {
      tensor {
        dtype: DT_INT32
        tensor_shape {
          dim {
            size: 1
          }
        }
        int_val: 0
      }
    }
  }
}
node {
  name: "training/Adam/gradients/loss/conv2d_3_loss/Mean_3_grad/Prod"
  op: "Prod"
  input: "training/Adam/gradients/loss/conv2d_3_loss/Mean_3_grad/Shape_1"
  input: "training/Adam/gradients/loss/conv2d_3_loss/Mean_3_grad/Const"
  attr {
    key: "T"
    value {
      type: DT_INT32
    }
  }
  attr {
    key: "Tidx"
    value {
      type: DT_INT32
    }
  }
  attr {
    key: "_class"
    value {
      list {
        s: "loc:@loss/conv2d_3_loss/Mean_3"
      }
    }
  }
  attr {
    key: "keep_dims"
    value {
      b: false
    }
  }
}
node {
  name: "training/Adam/gradients/loss/conv2d_3_loss/Mean_3_grad/Const_1"
  op: "Const"
  attr {
    key: "_class"
    value {
      list {
        s: "loc:@loss/conv2d_3_loss/Mean_3"
      }
    }
  }
  attr {
    key: "dtype"
    value {
      type: DT_INT32
    }
  }
  attr {
    key: "value"
    value {
      tensor {
        dtype: DT_INT32
        tensor_shape {
          dim {
            size: 1
          }
        }
        int_val: 0
      }
    }
  }
}
node {
  name: "training/Adam/gradients/loss/conv2d_3_loss/Mean_3_grad/Prod_1"
  op: "Prod"
  input: "training/Adam/gradients/loss/conv2d_3_loss/Mean_3_grad/Shape_2"
  input: "training/Adam/gradients/loss/conv2d_3_loss/Mean_3_grad/Const_1"
  attr {
    key: "T"
    value {
      type: DT_INT32
    }
  }
  attr {
    key: "Tidx"
    value {
      type: DT_INT32
    }
  }
  attr {
    key: "_class"
    value {
      list {
        s: "loc:@loss/conv2d_3_loss/Mean_3"
      }
    }
  }
  attr {
    key: "keep_dims"
    value {
      b: false
    }
  }
}
node {
  name: "training/Adam/gradients/loss/conv2d_3_loss/Mean_3_grad/Maximum/y"
  op: "Const"
  attr {
    key: "_class"
    value {
      list {
        s: "loc:@loss/conv2d_3_loss/Mean_3"
      }
    }
  }
  attr {
    key: "dtype"
    value {
      type: DT_INT32
    }
  }
  attr {
    key: "value"
    value {
      tensor {
        dtype: DT_INT32
        tensor_shape {
        }
        int_val: 1
      }
    }
  }
}
node {
  name: "training/Adam/gradients/loss/conv2d_3_loss/Mean_3_grad/Maximum"
  op: "Maximum"
  input: "training/Adam/gradients/loss/conv2d_3_loss/Mean_3_grad/Prod_1"
  input: "training/Adam/gradients/loss/conv2d_3_loss/Mean_3_grad/Maximum/y"
  attr {
    key: "T"
    value {
      type: DT_INT32
    }
  }
  attr {
    key: "_class"
    value {
      list {
        s: "loc:@loss/conv2d_3_loss/Mean_3"
      }
    }
  }
}
node {
  name: "training/Adam/gradients/loss/conv2d_3_loss/Mean_3_grad/floordiv"
  op: "FloorDiv"
  input: "training/Adam/gradients/loss/conv2d_3_loss/Mean_3_grad/Prod"
  input: "training/Adam/gradients/loss/conv2d_3_loss/Mean_3_grad/Maximum"
  attr {
    key: "T"
    value {
      type: DT_INT32
    }
  }
  attr {
    key: "_class"
    value {
      list {
        s: "loc:@loss/conv2d_3_loss/Mean_3"
      }
    }
  }
}
node {
  name: "training/Adam/gradients/loss/conv2d_3_loss/Mean_3_grad/Cast"
  op: "Cast"
  input: "training/Adam/gradients/loss/conv2d_3_loss/Mean_3_grad/floordiv"
  attr {
    key: "DstT"
    value {
      type: DT_FLOAT
    }
  }
  attr {
    key: "SrcT"
    value {
      type: DT_INT32
    }
  }
  attr {
    key: "_class"
    value {
      list {
        s: "loc:@loss/conv2d_3_loss/Mean_3"
      }
    }
  }
}
node {
  name: "training/Adam/gradients/loss/conv2d_3_loss/Mean_3_grad/truediv"
  op: "RealDiv"
  input: "training/Adam/gradients/loss/conv2d_3_loss/Mean_3_grad/Tile"
  input: "training/Adam/gradients/loss/conv2d_3_loss/Mean_3_grad/Cast"
  attr {
    key: "T"
    value {
      type: DT_FLOAT
    }
  }
  attr {
    key: "_class"
    value {
      list {
        s: "loc:@loss/conv2d_3_loss/Mean_3"
      }
    }
  }
}
node {
  name: "training/Adam/gradients/loss/conv2d_3_loss/truediv_grad/Shape"
  op: "Shape"
  input: "loss/conv2d_3_loss/mul"
  attr {
    key: "T"
    value {
      type: DT_FLOAT
    }
  }
  attr {
    key: "_class"
    value {
      list {
        s: "loc:@loss/conv2d_3_loss/truediv"
      }
    }
  }
  attr {
    key: "out_type"
    value {
      type: DT_INT32
    }
  }
}
node {
  name: "training/Adam/gradients/loss/conv2d_3_loss/truediv_grad/Shape_1"
  op: "Const"
  attr {
    key: "_class"
    value {
      list {
        s: "loc:@loss/conv2d_3_loss/truediv"
      }
    }
  }
  attr {
    key: "dtype"
    value {
      type: DT_INT32
    }
  }
  attr {
    key: "value"
    value {
      tensor {
        dtype: DT_INT32
        tensor_shape {
          dim {
          }
        }
      }
    }
  }
}
node {
  name: "training/Adam/gradients/loss/conv2d_3_loss/truediv_grad/BroadcastGradientArgs"
  op: "BroadcastGradientArgs"
  input: "training/Adam/gradients/loss/conv2d_3_loss/truediv_grad/Shape"
  input: "training/Adam/gradients/loss/conv2d_3_loss/truediv_grad/Shape_1"
  attr {
    key: "T"
    value {
      type: DT_INT32
    }
  }
  attr {
    key: "_class"
    value {
      list {
        s: "loc:@loss/conv2d_3_loss/truediv"
      }
    }
  }
}
node {
  name: "training/Adam/gradients/loss/conv2d_3_loss/truediv_grad/RealDiv"
  op: "RealDiv"
  input: "training/Adam/gradients/loss/conv2d_3_loss/Mean_3_grad/truediv"
  input: "loss/conv2d_3_loss/Mean_2"
  attr {
    key: "T"
    value {
      type: DT_FLOAT
    }
  }
  attr {
    key: "_class"
    value {
      list {
        s: "loc:@loss/conv2d_3_loss/truediv"
      }
    }
  }
}
node {
  name: "training/Adam/gradients/loss/conv2d_3_loss/truediv_grad/Sum"
  op: "Sum"
  input: "training/Adam/gradients/loss/conv2d_3_loss/truediv_grad/RealDiv"
  input: "training/Adam/gradients/loss/conv2d_3_loss/truediv_grad/BroadcastGradientArgs"
  attr {
    key: "T"
    value {
      type: DT_FLOAT
    }
  }
  attr {
    key: "Tidx"
    value {
      type: DT_INT32
    }
  }
  attr {
    key: "_class"
    value {
      list {
        s: "loc:@loss/conv2d_3_loss/truediv"
      }
    }
  }
  attr {
    key: "keep_dims"
    value {
      b: false
    }
  }
}
node {
  name: "training/Adam/gradients/loss/conv2d_3_loss/truediv_grad/Reshape"
  op: "Reshape"
  input: "training/Adam/gradients/loss/conv2d_3_loss/truediv_grad/Sum"
  input: "training/Adam/gradients/loss/conv2d_3_loss/truediv_grad/Shape"
  attr {
    key: "T"
    value {
      type: DT_FLOAT
    }
  }
  attr {
    key: "Tshape"
    value {
      type: DT_INT32
    }
  }
  attr {
    key: "_class"
    value {
      list {
        s: "loc:@loss/conv2d_3_loss/truediv"
      }
    }
  }
}
node {
  name: "training/Adam/gradients/loss/conv2d_3_loss/truediv_grad/Neg"
  op: "Neg"
  input: "loss/conv2d_3_loss/mul"
  attr {
    key: "T"
    value {
      type: DT_FLOAT
    }
  }
  attr {
    key: "_class"
    value {
      list {
        s: "loc:@loss/conv2d_3_loss/truediv"
      }
    }
  }
}
node {
  name: "training/Adam/gradients/loss/conv2d_3_loss/truediv_grad/RealDiv_1"
  op: "RealDiv"
  input: "training/Adam/gradients/loss/conv2d_3_loss/truediv_grad/Neg"
  input: "loss/conv2d_3_loss/Mean_2"
  attr {
    key: "T"
    value {
      type: DT_FLOAT
    }
  }
  attr {
    key: "_class"
    value {
      list {
        s: "loc:@loss/conv2d_3_loss/truediv"
      }
    }
  }
}
node {
  name: "training/Adam/gradients/loss/conv2d_3_loss/truediv_grad/RealDiv_2"
  op: "RealDiv"
  input: "training/Adam/gradients/loss/conv2d_3_loss/truediv_grad/RealDiv_1"
  input: "loss/conv2d_3_loss/Mean_2"
  attr {
    key: "T"
    value {
      type: DT_FLOAT
    }
  }
  attr {
    key: "_class"
    value {
      list {
        s: "loc:@loss/conv2d_3_loss/truediv"
      }
    }
  }
}
node {
  name: "training/Adam/gradients/loss/conv2d_3_loss/truediv_grad/mul"
  op: "Mul"
  input: "training/Adam/gradients/loss/conv2d_3_loss/Mean_3_grad/truediv"
  input: "training/Adam/gradients/loss/conv2d_3_loss/truediv_grad/RealDiv_2"
  attr {
    key: "T"
    value {
      type: DT_FLOAT
    }
  }
  attr {
    key: "_class"
    value {
      list {
        s: "loc:@loss/conv2d_3_loss/truediv"
      }
    }
  }
}
node {
  name: "training/Adam/gradients/loss/conv2d_3_loss/truediv_grad/Sum_1"
  op: "Sum"
  input: "training/Adam/gradients/loss/conv2d_3_loss/truediv_grad/mul"
  input: "training/Adam/gradients/loss/conv2d_3_loss/truediv_grad/BroadcastGradientArgs:1"
  attr {
    key: "T"
    value {
      type: DT_FLOAT
    }
  }
  attr {
    key: "Tidx"
    value {
      type: DT_INT32
    }
  }
  attr {
    key: "_class"
    value {
      list {
        s: "loc:@loss/conv2d_3_loss/truediv"
      }
    }
  }
  attr {
    key: "keep_dims"
    value {
      b: false
    }
  }
}
node {
  name: "training/Adam/gradients/loss/conv2d_3_loss/truediv_grad/Reshape_1"
  op: "Reshape"
  input: "training/Adam/gradients/loss/conv2d_3_loss/truediv_grad/Sum_1"
  input: "training/Adam/gradients/loss/conv2d_3_loss/truediv_grad/Shape_1"
  attr {
    key: "T"
    value {
      type: DT_FLOAT
    }
  }
  attr {
    key: "Tshape"
    value {
      type: DT_INT32
    }
  }
  attr {
    key: "_class"
    value {
      list {
        s: "loc:@loss/conv2d_3_loss/truediv"
      }
    }
  }
}
node {
  name: "training/Adam/gradients/loss/conv2d_3_loss/mul_grad/Shape"
  op: "Shape"
  input: "loss/conv2d_3_loss/Mean_1"
  attr {
    key: "T"
    value {
      type: DT_FLOAT
    }
  }
  attr {
    key: "_class"
    value {
      list {
        s: "loc:@loss/conv2d_3_loss/mul"
      }
    }
  }
  attr {
    key: "out_type"
    value {
      type: DT_INT32
    }
  }
}
node {
  name: "training/Adam/gradients/loss/conv2d_3_loss/mul_grad/Shape_1"
  op: "Shape"
  input: "conv2d_3_sample_weights"
  attr {
    key: "T"
    value {
      type: DT_FLOAT
    }
  }
  attr {
    key: "_class"
    value {
      list {
        s: "loc:@loss/conv2d_3_loss/mul"
      }
    }
  }
  attr {
    key: "out_type"
    value {
      type: DT_INT32
    }
  }
}
node {
  name: "training/Adam/gradients/loss/conv2d_3_loss/mul_grad/BroadcastGradientArgs"
  op: "BroadcastGradientArgs"
  input: "training/Adam/gradients/loss/conv2d_3_loss/mul_grad/Shape"
  input: "training/Adam/gradients/loss/conv2d_3_loss/mul_grad/Shape_1"
  attr {
    key: "T"
    value {
      type: DT_INT32
    }
  }
  attr {
    key: "_class"
    value {
      list {
        s: "loc:@loss/conv2d_3_loss/mul"
      }
    }
  }
}
node {
  name: "training/Adam/gradients/loss/conv2d_3_loss/mul_grad/Mul"
  op: "Mul"
  input: "training/Adam/gradients/loss/conv2d_3_loss/truediv_grad/Reshape"
  input: "conv2d_3_sample_weights"
  attr {
    key: "T"
    value {
      type: DT_FLOAT
    }
  }
  attr {
    key: "_class"
    value {
      list {
        s: "loc:@loss/conv2d_3_loss/mul"
      }
    }
  }
}
node {
  name: "training/Adam/gradients/loss/conv2d_3_loss/mul_grad/Sum"
  op: "Sum"
  input: "training/Adam/gradients/loss/conv2d_3_loss/mul_grad/Mul"
  input: "training/Adam/gradients/loss/conv2d_3_loss/mul_grad/BroadcastGradientArgs"
  attr {
    key: "T"
    value {
      type: DT_FLOAT
    }
  }
  attr {
    key: "Tidx"
    value {
      type: DT_INT32
    }
  }
  attr {
    key: "_class"
    value {
      list {
        s: "loc:@loss/conv2d_3_loss/mul"
      }
    }
  }
  attr {
    key: "keep_dims"
    value {
      b: false
    }
  }
}
node {
  name: "training/Adam/gradients/loss/conv2d_3_loss/mul_grad/Reshape"
  op: "Reshape"
  input: "training/Adam/gradients/loss/conv2d_3_loss/mul_grad/Sum"
  input: "training/Adam/gradients/loss/conv2d_3_loss/mul_grad/Shape"
  attr {
    key: "T"
    value {
      type: DT_FLOAT
    }
  }
  attr {
    key: "Tshape"
    value {
      type: DT_INT32
    }
  }
  attr {
    key: "_class"
    value {
      list {
        s: "loc:@loss/conv2d_3_loss/mul"
      }
    }
  }
}
node {
  name: "training/Adam/gradients/loss/conv2d_3_loss/mul_grad/Mul_1"
  op: "Mul"
  input: "loss/conv2d_3_loss/Mean_1"
  input: "training/Adam/gradients/loss/conv2d_3_loss/truediv_grad/Reshape"
  attr {
    key: "T"
    value {
      type: DT_FLOAT
    }
  }
  attr {
    key: "_class"
    value {
      list {
        s: "loc:@loss/conv2d_3_loss/mul"
      }
    }
  }
}
node {
  name: "training/Adam/gradients/loss/conv2d_3_loss/mul_grad/Sum_1"
  op: "Sum"
  input: "training/Adam/gradients/loss/conv2d_3_loss/mul_grad/Mul_1"
  input: "training/Adam/gradients/loss/conv2d_3_loss/mul_grad/BroadcastGradientArgs:1"
  attr {
    key: "T"
    value {
      type: DT_FLOAT
    }
  }
  attr {
    key: "Tidx"
    value {
      type: DT_INT32
    }
  }
  attr {
    key: "_class"
    value {
      list {
        s: "loc:@loss/conv2d_3_loss/mul"
      }
    }
  }
  attr {
    key: "keep_dims"
    value {
      b: false
    }
  }
}
node {
  name: "training/Adam/gradients/loss/conv2d_3_loss/mul_grad/Reshape_1"
  op: "Reshape"
  input: "training/Adam/gradients/loss/conv2d_3_loss/mul_grad/Sum_1"
  input: "training/Adam/gradients/loss/conv2d_3_loss/mul_grad/Shape_1"
  attr {
    key: "T"
    value {
      type: DT_FLOAT
    }
  }
  attr {
    key: "Tshape"
    value {
      type: DT_INT32
    }
  }
  attr {
    key: "_class"
    value {
      list {
        s: "loc:@loss/conv2d_3_loss/mul"
      }
    }
  }
}
node {
  name: "training/Adam/gradients/loss/conv2d_3_loss/Mean_1_grad/Shape"
  op: "Shape"
  input: "loss/conv2d_3_loss/Mean"
  attr {
    key: "T"
    value {
      type: DT_FLOAT
    }
  }
  attr {
    key: "_class"
    value {
      list {
        s: "loc:@loss/conv2d_3_loss/Mean_1"
      }
    }
  }
  attr {
    key: "out_type"
    value {
      type: DT_INT32
    }
  }
}
node {
  name: "training/Adam/gradients/loss/conv2d_3_loss/Mean_1_grad/Size"
  op: "Const"
  attr {
    key: "_class"
    value {
      list {
        s: "loc:@loss/conv2d_3_loss/Mean_1"
      }
    }
  }
  attr {
    key: "dtype"
    value {
      type: DT_INT32
    }
  }
  attr {
    key: "value"
    value {
      tensor {
        dtype: DT_INT32
        tensor_shape {
        }
        int_val: 3
      }
    }
  }
}
node {
  name: "training/Adam/gradients/loss/conv2d_3_loss/Mean_1_grad/add"
  op: "Add"
  input: "loss/conv2d_3_loss/Mean_1/reduction_indices"
  input: "training/Adam/gradients/loss/conv2d_3_loss/Mean_1_grad/Size"
  attr {
    key: "T"
    value {
      type: DT_INT32
    }
  }
  attr {
    key: "_class"
    value {
      list {
        s: "loc:@loss/conv2d_3_loss/Mean_1"
      }
    }
  }
}
node {
  name: "training/Adam/gradients/loss/conv2d_3_loss/Mean_1_grad/mod"
  op: "FloorMod"
  input: "training/Adam/gradients/loss/conv2d_3_loss/Mean_1_grad/add"
  input: "training/Adam/gradients/loss/conv2d_3_loss/Mean_1_grad/Size"
  attr {
    key: "T"
    value {
      type: DT_INT32
    }
  }
  attr {
    key: "_class"
    value {
      list {
        s: "loc:@loss/conv2d_3_loss/Mean_1"
      }
    }
  }
}
node {
  name: "training/Adam/gradients/loss/conv2d_3_loss/Mean_1_grad/Shape_1"
  op: "Const"
  attr {
    key: "_class"
    value {
      list {
        s: "loc:@loss/conv2d_3_loss/Mean_1"
      }
    }
  }
  attr {
    key: "dtype"
    value {
      type: DT_INT32
    }
  }
  attr {
    key: "value"
    value {
      tensor {
        dtype: DT_INT32
        tensor_shape {
          dim {
            size: 1
          }
        }
        int_val: 2
      }
    }
  }
}
node {
  name: "training/Adam/gradients/loss/conv2d_3_loss/Mean_1_grad/range/start"
  op: "Const"
  attr {
    key: "_class"
    value {
      list {
        s: "loc:@loss/conv2d_3_loss/Mean_1"
      }
    }
  }
  attr {
    key: "dtype"
    value {
      type: DT_INT32
    }
  }
  attr {
    key: "value"
    value {
      tensor {
        dtype: DT_INT32
        tensor_shape {
        }
        int_val: 0
      }
    }
  }
}
node {
  name: "training/Adam/gradients/loss/conv2d_3_loss/Mean_1_grad/range/delta"
  op: "Const"
  attr {
    key: "_class"
    value {
      list {
        s: "loc:@loss/conv2d_3_loss/Mean_1"
      }
    }
  }
  attr {
    key: "dtype"
    value {
      type: DT_INT32
    }
  }
  attr {
    key: "value"
    value {
      tensor {
        dtype: DT_INT32
        tensor_shape {
        }
        int_val: 1
      }
    }
  }
}
node {
  name: "training/Adam/gradients/loss/conv2d_3_loss/Mean_1_grad/range"
  op: "Range"
  input: "training/Adam/gradients/loss/conv2d_3_loss/Mean_1_grad/range/start"
  input: "training/Adam/gradients/loss/conv2d_3_loss/Mean_1_grad/Size"
  input: "training/Adam/gradients/loss/conv2d_3_loss/Mean_1_grad/range/delta"
  attr {
    key: "Tidx"
    value {
      type: DT_INT32
    }
  }
  attr {
    key: "_class"
    value {
      list {
        s: "loc:@loss/conv2d_3_loss/Mean_1"
      }
    }
  }
}
node {
  name: "training/Adam/gradients/loss/conv2d_3_loss/Mean_1_grad/Fill/value"
  op: "Const"
  attr {
    key: "_class"
    value {
      list {
        s: "loc:@loss/conv2d_3_loss/Mean_1"
      }
    }
  }
  attr {
    key: "dtype"
    value {
      type: DT_INT32
    }
  }
  attr {
    key: "value"
    value {
      tensor {
        dtype: DT_INT32
        tensor_shape {
        }
        int_val: 1
      }
    }
  }
}
node {
  name: "training/Adam/gradients/loss/conv2d_3_loss/Mean_1_grad/Fill"
  op: "Fill"
  input: "training/Adam/gradients/loss/conv2d_3_loss/Mean_1_grad/Shape_1"
  input: "training/Adam/gradients/loss/conv2d_3_loss/Mean_1_grad/Fill/value"
  attr {
    key: "T"
    value {
      type: DT_INT32
    }
  }
  attr {
    key: "_class"
    value {
      list {
        s: "loc:@loss/conv2d_3_loss/Mean_1"
      }
    }
  }
  attr {
    key: "index_type"
    value {
      type: DT_INT32
    }
  }
}
node {
  name: "training/Adam/gradients/loss/conv2d_3_loss/Mean_1_grad/DynamicStitch"
  op: "DynamicStitch"
  input: "training/Adam/gradients/loss/conv2d_3_loss/Mean_1_grad/range"
  input: "training/Adam/gradients/loss/conv2d_3_loss/Mean_1_grad/mod"
  input: "training/Adam/gradients/loss/conv2d_3_loss/Mean_1_grad/Shape"
  input: "training/Adam/gradients/loss/conv2d_3_loss/Mean_1_grad/Fill"
  attr {
    key: "N"
    value {
      i: 2
    }
  }
  attr {
    key: "T"
    value {
      type: DT_INT32
    }
  }
  attr {
    key: "_class"
    value {
      list {
        s: "loc:@loss/conv2d_3_loss/Mean_1"
      }
    }
  }
}
node {
  name: "training/Adam/gradients/loss/conv2d_3_loss/Mean_1_grad/Maximum/y"
  op: "Const"
  attr {
    key: "_class"
    value {
      list {
        s: "loc:@loss/conv2d_3_loss/Mean_1"
…
        }
      }
    }
  }
}
node {
  name: "AssignVariableOp_57"
  op: "AssignVariableOp"
  input: "training/Adam/Variable_40"
  input: "Placeholder_57"
  attr {
    key: "dtype"
    value {
      type: DT_FLOAT
    }
  }
}
node {
  name: "ReadVariableOp_57"
  op: "ReadVariableOp"
  input: "training/Adam/Variable_40"
  input: "^AssignVariableOp_57"
  attr {
    key: "dtype"
    value {
      type: DT_FLOAT
    }
  }
}
node {
  name: "Placeholder_58"
  op: "Placeholder"
  attr {
    key: "dtype"
    value {
      type: DT_FLOAT
    }
  }
  attr {
    key: "shape"
    value {
      shape {
        dim {
          size: 1
        }
      }
    }
  }
}
node {
  name: "AssignVariableOp_58"
  op: "AssignVariableOp"
  input: "training/Adam/Variable_41"
  input: "Placeholder_58"
  attr {
    key: "dtype"
    value {
      type: DT_FLOAT
    }
  }
}
node {
  name: "ReadVariableOp_58"
  op: "ReadVariableOp"
  input: "training/Adam/Variable_41"
  input: "^AssignVariableOp_58"
  attr {
    key: "dtype"
    value {
      type: DT_FLOAT
    }
  }
}
node {
  name: "Placeholder_59"
  op: "Placeholder"
  attr {
    key: "dtype"
    value {
      type: DT_FLOAT
    }
  }
  attr {
    key: "shape"
    value {
      shape {
        dim {
          size: 1
        }
      }
    }
  }
}
node {
  name: "AssignVariableOp_59"
  op: "AssignVariableOp"
  input: "training/Adam/Variable_42"
  input: "Placeholder_59"
  attr {
    key: "dtype"
    value {
      type: DT_FLOAT
    }
  }
}
node {
  name: "ReadVariableOp_59"
  op: "ReadVariableOp"
  input: "training/Adam/Variable_42"
  input: "^AssignVariableOp_59"
  attr {
    key: "dtype"
    value {
      type: DT_FLOAT
    }
  }
}
node {
  name: "Placeholder_60"
  op: "Placeholder"
  attr {
    key: "dtype"
    value {
      type: DT_FLOAT
    }
  }
  attr {
    key: "shape"
    value {
      shape {
        dim {
          size: 1
        }
      }
    }
  }
}
node {
  name: "AssignVariableOp_60"
  op: "AssignVariableOp"
  input: "training/Adam/Variable_43"
  input: "Placeholder_60"
  attr {
    key: "dtype"
    value {
      type: DT_FLOAT
    }
  }
}
node {
  name: "ReadVariableOp_60"
  op: "ReadVariableOp"
  input: "training/Adam/Variable_43"
  input: "^AssignVariableOp_60"
  attr {
    key: "dtype"
    value {
      type: DT_FLOAT
    }
  }
}
node {
  name: "Placeholder_61"
  op: "Placeholder"
  attr {
    key: "dtype"
    value {
      type: DT_FLOAT
    }
  }
  attr {
    key: "shape"
    value {
      shape {
        dim {
          size: 1
        }
      }
    }
  }
}
node {
  name: "AssignVariableOp_61"
  op: "AssignVariableOp"
  input: "training/Adam/Variable_44"
  input: "Placeholder_61"
  attr {
    key: "dtype"
    value {
      type: DT_FLOAT
    }
  }
}
node {
  name: "ReadVariableOp_61"
  op: "ReadVariableOp"
  input: "training/Adam/Variable_44"
  input: "^AssignVariableOp_61"
  attr {
    key: "dtype"
    value {
      type: DT_FLOAT
    }
  }
}
node {
  name: "Placeholder_62"
  op: "Placeholder"
  attr {
    key: "dtype"
    value {
      type: DT_FLOAT
    }
  }
  attr {
    key: "shape"
    value {
      shape {
        dim {
          size: 1
        }
      }
    }
  }
}
node {
  name: "AssignVariableOp_62"
  op: "AssignVariableOp"
  input: "training/Adam/Variable_45"
  input: "Placeholder_62"
  attr {
    key: "dtype"
    value {
      type: DT_FLOAT
    }
  }
}
node {
  name: "ReadVariableOp_62"
  op: "ReadVariableOp"
  input: "training/Adam/Variable_45"
  input: "^AssignVariableOp_62"
  attr {
    key: "dtype"
    value {
      type: DT_FLOAT
    }
  }
}
node {
  name: "Placeholder_63"
  op: "Placeholder"
  attr {
    key: "dtype"
    value {
      type: DT_FLOAT
    }
  }
  attr {
    key: "shape"
    value {
      shape {
        dim {
          size: 1
        }
      }
    }
  }
}
node {
  name: "AssignVariableOp_63"
  op: "AssignVariableOp"
  input: "training/Adam/Variable_46"
  input: "Placeholder_63"
  attr {
    key: "dtype"
    value {
      type: DT_FLOAT
    }
  }
}
node {
  name: "ReadVariableOp_63"
  op: "ReadVariableOp"
  input: "training/Adam/Variable_46"
  input: "^AssignVariableOp_63"
  attr {
    key: "dtype"
    value {
      type: DT_FLOAT
    }
  }
}
node {
  name: "Placeholder_64"
  op: "Placeholder"
  attr {
    key: "dtype"
    value {
      type: DT_FLOAT
    }
  }
  attr {
    key: "shape"
    value {
      shape {
        dim {
          size: 1
        }
      }
    }
  }
}
node {
  name: "AssignVariableOp_64"
  op: "AssignVariableOp"
  input: "training/Adam/Variable_47"
  input: "Placeholder_64"
  attr {
    key: "dtype"
    value {
      type: DT_FLOAT
    }
  }
}
node {
  name: "ReadVariableOp_64"
  op: "ReadVariableOp"
  input: "training/Adam/Variable_47"
  input: "^AssignVariableOp_64"
  attr {
    key: "dtype"
    value {
      type: DT_FLOAT
    }
  }
}
node {
  name: "save/Const"
  op: "Const"
  attr {
    key: "dtype"
    value {
      type: DT_STRING
    }
  }
  attr {
    key: "value"
    value {
      tensor {
        dtype: DT_STRING
        tensor_shape {
        }
        string_val: "model"
      }
    }
  }
}
node {
  name: "save/SaveV2/tensor_names"
  op: "Const"
  attr {
    key: "dtype"
    value {
      type: DT_STRING
    }
  }
  attr {
    key: "value"
    value {
      tensor {
        dtype: DT_STRING
        tensor_shape {
          dim {
            size: 69
          }
        }
        string_val: "Adam/beta_1"
        string_val: "Adam/beta_2"
        string_val: "Adam/decay"
        string_val: "Adam/iterations"
        string_val: "Adam/lr"
        string_val: "conv2d/bias"
        string_val: "conv2d/kernel"
        string_val: "conv2d_1/bias"
        string_val: "conv2d_1/kernel"
        string_val: "conv2d_2/bias"
        string_val: "conv2d_2/kernel"
        string_val: "conv2d_3/bias"
        string_val: "conv2d_3/kernel"
        string_val: "conv2d_transpose/bias"
        string_val: "conv2d_transpose/kernel"
        string_val: "conv2d_transpose_1/bias"
        string_val: "conv2d_transpose_1/kernel"
        string_val: "conv2d_transpose_2/bias"
        string_val: "conv2d_transpose_2/kernel"
        string_val: "conv2d_transpose_3/bias"
        string_val: "conv2d_transpose_3/kernel"
        string_val: "training/Adam/Variable"
        string_val: "training/Adam/Variable_1"
        string_val: "training/Adam/Variable_10"
        string_val: "training/Adam/Variable_11"
        string_val: "training/Adam/Variable_12"
        string_val: "training/Adam/Variable_13"
        string_val: "training/Adam/Variable_14"
        string_val: "training/Adam/Variable_15"
        string_val: "training/Adam/Variable_16"
        string_val: "training/Adam/Variable_17"
        string_val: "training/Adam/Variable_18"
        string_val: "training/Adam/Variable_19"
        string_val: "training/Adam/Variable_2"
        string_val: "training/Adam/Variable_20"
        string_val: "training/Adam/Variable_21"
        string_val: "training/Adam/Variable_22"
        string_val: "training/Adam/Variable_23"
        string_val: "training/Adam/Variable_24"
        string_val: "training/Adam/Variable_25"
        string_val: "training/Adam/Variable_26"
        string_val: "training/Adam/Variable_27"
        string_val: "training/Adam/Variable_28"
        string_val: "training/Adam/Variable_29"
        string_val: "training/Adam/Variable_3"
        string_val: "training/Adam/Variable_30"
        string_val: "training/Adam/Variable_31"
        string_val: "training/Adam/Variable_32"
        string_val: "training/Adam/Variable_33"
        string_val: "training/Adam/Variable_34"
        string_val: "training/Adam/Variable_35"
        string_val: "training/Adam/Variable_36"
        string_val: "training/Adam/Variable_37"
        string_val: "training/Adam/Variable_38"
        string_val: "training/Adam/Variable_39"
        string_val: "training/Adam/Variable_4"
        string_val: "training/Adam/Variable_40"
        string_val: "training/Adam/Variable_41"
        string_val: "training/Adam/Variable_42"
        string_val: "training/Adam/Variable_43"
        string_val: "training/Adam/Variable_44"
        string_val: "training/Adam/Variable_45"
        string_val: "training/Adam/Variable_46"
        string_val: "training/Adam/Variable_47"
        string_val: "training/Adam/Variable_5"
        string_val: "training/Adam/Variable_6"
        string_val: "training/Adam/Variable_7"
        string_val: "training/Adam/Variable_8"
        string_val: "training/Adam/Variable_9"
      }
    }
  }
}
node {
  name: "save/SaveV2/shape_and_slices"
  op: "Const"
  attr {
    key: "dtype"
    value {
      type: DT_STRING
    }
  }
  attr {
    key: "value"
    value {
      tensor {
        dtype: DT_STRING
        tensor_shape {
          dim {
            size: 69
          }
        }
        string_val: ""
        string_val: ""
        string_val: ""
        string_val: ""
        string_val: ""
        string_val: ""
        string_val: ""
        string_val: ""
        string_val: ""
        string_val: ""
        string_val: ""
        string_val: ""
        string_val: ""
        string_val: ""
        string_val: ""
        string_val: ""
        string_val: ""
        string_val: ""
        string_val: ""
        string_val: ""
        string_val: ""
        string_val: ""
        string_val: ""
        string_val: ""
        string_val: ""
        string_val: ""
        string_val: ""
        string_val: ""
        string_val: ""
        string_val: ""
        string_val: ""
        string_val: ""
        string_val: ""
        string_val: ""
        string_val: ""
        string_val: ""
        string_val: ""
        string_val: ""
        string_val: ""
        string_val: ""
        string_val: ""
        string_val: ""
        string_val: ""
        string_val: ""
        string_val: ""
        string_val: ""
        string_val: ""
        string_val: ""
        string_val: ""
        string_val: ""
        string_val: ""
        string_val: ""
        string_val: ""
        string_val: ""
        string_val: ""
        string_val: ""
        string_val: ""
        string_val: ""
        string_val: ""
        string_val: ""
        string_val: ""
        string_val: ""
        string_val: ""
        string_val: ""
        string_val: ""
        string_val: ""
        string_val: ""
        string_val: ""
        string_val: ""
      }
    }
  }
}
node {
  name: "save/SaveV2"
  op: "SaveV2"
  input: "save/Const"
  input: "save/SaveV2/tensor_names"
  input: "save/SaveV2/shape_and_slices"
  input: "Adam/beta_1/Read/ReadVariableOp"
  input: "Adam/beta_2/Read/ReadVariableOp"
  input: "Adam/decay/Read/ReadVariableOp"
  input: "Adam/iterations/Read/ReadVariableOp"
  input: "Adam/lr/Read/ReadVariableOp"
  input: "conv2d/bias/Read/ReadVariableOp"
  input: "conv2d/kernel/Read/ReadVariableOp"
  input: "conv2d_1/bias/Read/ReadVariableOp"
  input: "conv2d_1/kernel/Read/ReadVariableOp"
  input: "conv2d_2/bias/Read/ReadVariableOp"
  input: "conv2d_2/kernel/Read/ReadVariableOp"
  input: "conv2d_3/bias/Read/ReadVariableOp"
  input: "conv2d_3/kernel/Read/ReadVariableOp"
  input: "conv2d_transpose/bias/Read/ReadVariableOp"
  input: "conv2d_transpose/kernel/Read/ReadVariableOp"
  input: "conv2d_transpose_1/bias/Read/ReadVariableOp"
  input: "conv2d_transpose_1/kernel/Read/ReadVariableOp"
  input: "conv2d_transpose_2/bias/Read/ReadVariableOp"
  input: "conv2d_transpose_2/kernel/Read/ReadVariableOp"
  input: "conv2d_transpose_3/bias/Read/ReadVariableOp"
  input: "conv2d_transpose_3/kernel/Read/ReadVariableOp"
  input: "training/Adam/Variable/Read/ReadVariableOp"
  input: "training/Adam/Variable_1/Read/ReadVariableOp"
  input: "training/Adam/Variable_10/Read/ReadVariableOp"
  input: "training/Adam/Variable_11/Read/ReadVariableOp"
  input: "training/Adam/Variable_12/Read/ReadVariableOp"
  input: "training/Adam/Variable_13/Read/ReadVariableOp"
  input: "training/Adam/Variable_14/Read/ReadVariableOp"
  input: "training/Adam/Variable_15/Read/ReadVariableOp"
  input: "training/Adam/Variable_16/Read/ReadVariableOp"
  input: "training/Adam/Variable_17/Read/ReadVariableOp"
  input: "training/Adam/Variable_18/Read/ReadVariableOp"
  input: "training/Adam/Variable_19/Read/ReadVariableOp"
  input: "training/Adam/Variable_2/Read/ReadVariableOp"
  input: "training/Adam/Variable_20/Read/ReadVariableOp"
  input: "training/Adam/Variable_21/Read/ReadVariableOp"
  input: "training/Adam/Variable_22/Read/ReadVariableOp"
  input: "training/Adam/Variable_23/Read/ReadVariableOp"
  input: "training/Adam/Variable_24/Read/ReadVariableOp"
  input: "training/Adam/Variable_25/Read/ReadVariableOp"
  input: "training/Adam/Variable_26/Read/ReadVariableOp"
  input: "training/Adam/Variable_27/Read/ReadVariableOp"
  input: "training/Adam/Variable_28/Read/ReadVariableOp"
  input: "training/Adam/Variable_29/Read/ReadVariableOp"
  input: "training/Adam/Variable_3/Read/ReadVariableOp"
  input: "training/Adam/Variable_30/Read/ReadVariableOp"
  input: "training/Adam/Variable_31/Read/ReadVariableOp"
  input: "training/Adam/Variable_32/Read/ReadVariableOp"
  input: "training/Adam/Variable_33/Read/ReadVariableOp"
  input: "training/Adam/Variable_34/Read/ReadVariableOp"
  input: "training/Adam/Variable_35/Read/ReadVariableOp"
  input: "training/Adam/Variable_36/Read/ReadVariableOp"
  input: "training/Adam/Variable_37/Read/ReadVariableOp"
  input: "training/Adam/Variable_38/Read/ReadVariableOp"
  input: "training/Adam/Variable_39/Read/ReadVariableOp"
  input: "training/Adam/Variable_4/Read/ReadVariableOp"
  input: "training/Adam/Variable_40/Read/ReadVariableOp"
  input: "training/Adam/Variable_41/Read/ReadVariableOp"
  input: "training/Adam/Variable_42/Read/ReadVariableOp"
  input: "training/Adam/Variable_43/Read/ReadVariableOp"
  input: "training/Adam/Variable_44/Read/ReadVariableOp"
  input: "training/Adam/Variable_45/Read/ReadVariableOp"
  input: "training/Adam/Variable_46/Read/ReadVariableOp"
  input: "training/Adam/Variable_47/Read/ReadVariableOp"
  input: "training/Adam/Variable_5/Read/ReadVariableOp"
  input: "training/Adam/Variable_6/Read/ReadVariableOp"
  input: "training/Adam/Variable_7/Read/ReadVariableOp"
  input: "training/Adam/Variable_8/Read/ReadVariableOp"
  input: "training/Adam/Variable_9/Read/ReadVariableOp"
  attr {
    key: "dtypes"
    value {
      list {
        type: DT_FLOAT
        type: DT_FLOAT
        type: DT_FLOAT
        type: DT_INT64
        type: DT_FLOAT
        type: DT_FLOAT
        type: DT_FLOAT
        type: DT_FLOAT
        type: DT_FLOAT
        type: DT_FLOAT
        type: DT_FLOAT
        type: DT_FLOAT
        type: DT_FLOAT
        type: DT_FLOAT
        type: DT_FLOAT
        type: DT_FLOAT
        type: DT_FLOAT
        type: DT_FLOAT
        type: DT_FLOAT
        type: DT_FLOAT
        type: DT_FLOAT
        type: DT_FLOAT
        type: DT_FLOAT
        type: DT_FLOAT
        type: DT_FLOAT
        type: DT_FLOAT
        type: DT_FLOAT
        type: DT_FLOAT
        type: DT_FLOAT
        type: DT_FLOAT
        type: DT_FLOAT
        type: DT_FLOAT
        type: DT_FLOAT
        type: DT_FLOAT
        type: DT_FLOAT
        type: DT_FLOAT
        type: DT_FLOAT
        type: DT_FLOAT
        type: DT_FLOAT
        type: DT_FLOAT
        type: DT_FLOAT
        type: DT_FLOAT
        type: DT_FLOAT
        type: DT_FLOAT
        type: DT_FLOAT
        type: DT_FLOAT
        type: DT_FLOAT
        type: DT_FLOAT
        type: DT_FLOAT
        type: DT_FLOAT
        type: DT_FLOAT
        type: DT_FLOAT
        type: DT_FLOAT
        type: DT_FLOAT
        type: DT_FLOAT
        type: DT_FLOAT
        type: DT_FLOAT
        type: DT_FLOAT
        type: DT_FLOAT
        type: DT_FLOAT
        type: DT_FLOAT
        type: DT_FLOAT
        type: DT_FLOAT
        type: DT_FLOAT
        type: DT_FLOAT
        type: DT_FLOAT
        type: DT_FLOAT
        type: DT_FLOAT
        type: DT_FLOAT
      }
    }
  }
}
node {
  name: "save/control_dependency"
  op: "Identity"
  input: "save/Const"
  input: "^save/SaveV2"
  attr {
    key: "T"
    value {
      type: DT_STRING
    }
  }
  attr {
    key: "_class"
    value {
      list {
        s: "loc:@save/Const"
      }
    }
  }
}
node {
  name: "save/RestoreV2/tensor_names"
  op: "Const"
  device: "/device:CPU:0"
  attr {
    key: "dtype"
    value {
      type: DT_STRING
    }
  }
  attr {
    key: "value"
    value {
      tensor {
        dtype: DT_STRING
        tensor_shape {
          dim {
            size: 69
          }
        }
        string_val: "Adam/beta_1"
        string_val: "Adam/beta_2"
        string_val: "Adam/decay"
        string_val: "Adam/iterations"
        string_val: "Adam/lr"
        string_val: "conv2d/bias"
        string_val: "conv2d/kernel"
        string_val: "conv2d_1/bias"
        string_val: "conv2d_1/kernel"
        string_val: "conv2d_2/bias"
        string_val: "conv2d_2/kernel"
        string_val: "conv2d_3/bias"
        string_val: "conv2d_3/kernel"
        string_val: "conv2d_transpose/bias"
        string_val: "conv2d_transpose/kernel"
        string_val: "conv2d_transpose_1/bias"
        string_val: "conv2d_transpose_1/kernel"
        string_val: "conv2d_transpose_2/bias"
        string_val: "conv2d_transpose_2/kernel"
        string_val: "conv2d_transpose_3/bias"
        string_val: "conv2d_transpose_3/kernel"
        string_val: "training/Adam/Variable"
        string_val: "training/Adam/Variable_1"
        string_val: "training/Adam/Variable_10"
        string_val: "training/Adam/Variable_11"
        string_val: "training/Adam/Variable_12"
        string_val: "training/Adam/Variable_13"
        string_val: "training/Adam/Variable_14"
        string_val: "training/Adam/Variable_15"
        string_val: "training/Adam/Variable_16"
        string_val: "training/Adam/Variable_17"
        string_val: "training/Adam/Variable_18"
        string_val: "training/Adam/Variable_19"
        string_val: "training/Adam/Variable_2"
        string_val: "training/Adam/Variable_20"
        string_val: "training/Adam/Variable_21"
        string_val: "training/Adam/Variable_22"
        string_val: "training/Adam/Variable_23"
        string_val: "training/Adam/Variable_24"
        string_val: "training/Adam/Variable_25"
        string_val: "training/Adam/Variable_26"
        string_val: "training/Adam/Variable_27"
        string_val: "training/Adam/Variable_28"
        string_val: "training/Adam/Variable_29"
        string_val: "training/Adam/Variable_3"
        string_val: "training/Adam/Variable_30"
        string_val: "training/Adam/Variable_31"
        string_val: "training/Adam/Variable_32"
        string_val: "training/Adam/Variable_33"
        string_val: "training/Adam/Variable_34"
        string_val: "training/Adam/Variable_35"
        string_val: "training/Adam/Variable_36"
        string_val: "training/Adam/Variable_37"
        string_val: "training/Adam/Variable_38"
        string_val: "training/Adam/Variable_39"
        string_val: "training/Adam/Variable_4"
        string_val: "training/Adam/Variable_40"
        string_val: "training/Adam/Variable_41"
        string_val: "training/Adam/Variable_42"
        string_val: "training/Adam/Variable_43"
        string_val: "training/Adam/Variable_44"
        string_val: "training/Adam/Variable_45"
        string_val: "training/Adam/Variable_46"
        string_val: "training/Adam/Variable_47"
        string_val: "training/Adam/Variable_5"
        string_val: "training/Adam/Variable_6"
        string_val: "training/Adam/Variable_7"
        string_val: "training/Adam/Variable_8"
        string_val: "training/Adam/Variable_9"
      }
    }
  }
}
node {
  name: "save/RestoreV2/shape_and_slices"
  op: "Const"
  device: "/device:CPU:0"
  attr {
    key: "dtype"
    value {
      type: DT_STRING
    }
  }
  attr {
    key: "value"
    value {
      tensor {
        dtype: DT_STRING
        tensor_shape {
          dim {
            size: 69
          }
        }
        string_val: ""
        string_val: ""
        string_val: ""
        string_val: ""
        string_val: ""
        string_val: ""
        string_val: ""
        string_val: ""
        string_val: ""
        string_val: ""
        string_val: ""
        string_val: ""
        string_val: ""
        string_val: ""
        string_val: ""
        string_val: ""
        string_val: ""
        string_val: ""
        string_val: ""
        string_val: ""
        string_val: ""
        string_val: ""
        string_val: ""
        string_val: ""
        string_val: ""
        string_val: ""
        string_val: ""
        string_val: ""
        string_val: ""
        string_val: ""
        string_val: ""
        string_val: ""
        string_val: ""
        string_val: ""
        string_val: ""
        string_val: ""
        string_val: ""
        string_val: ""
        string_val: ""
        string_val: ""
        string_val: ""
        string_val: ""
        string_val: ""
        string_val: ""
        string_val: ""
        string_val: ""
        string_val: ""
        string_val: ""
        string_val: ""
        string_val: ""
        string_val: ""
        string_val: ""
        string_val: ""
        string_val: ""
        string_val: ""
        string_val: ""
        string_val: ""
        string_val: ""
        string_val: ""
        string_val: ""
        string_val: ""
        string_val: ""
        string_val: ""
        string_val: ""
        string_val: ""
        string_val: ""
        string_val: ""
        string_val: ""
        string_val: ""
      }
    }
  }
}
node {
  name: "save/RestoreV2"
  op: "RestoreV2"
  input: "save/Const"
  input: "save/RestoreV2/tensor_names"
  input: "save/RestoreV2/shape_and_slices"
  device: "/device:CPU:0"
  attr {
    key: "dtypes"
    value {
      list {
        type: DT_FLOAT
        type: DT_FLOAT
        type: DT_FLOAT
        type: DT_INT64
        type: DT_FLOAT
        type: DT_FLOAT
        type: DT_FLOAT
        type: DT_FLOAT
        type: DT_FLOAT
        type: DT_FLOAT
        type: DT_FLOAT
        type: DT_FLOAT
        type: DT_FLOAT
        type: DT_FLOAT
        type: DT_FLOAT
        type: DT_FLOAT
        type: DT_FLOAT
        type: DT_FLOAT
        type: DT_FLOAT
        type: DT_FLOAT
        type: DT_FLOAT
        type: DT_FLOAT
        type: DT_FLOAT
        type: DT_FLOAT
        type: DT_FLOAT
        type: DT_FLOAT
        type: DT_FLOAT
        type: DT_FLOAT
        type: DT_FLOAT
        type: DT_FLOAT
        type: DT_FLOAT
        type: DT_FLOAT
        type: DT_FLOAT
        type: DT_FLOAT
        type: DT_FLOAT
        type: DT_FLOAT
        type: DT_FLOAT
        type: DT_FLOAT
        type: DT_FLOAT
        type: DT_FLOAT
        type: DT_FLOAT
        type: DT_FLOAT
        type: DT_FLOAT
        type: DT_FLOAT
        type: DT_FLOAT
        type: DT_FLOAT
        type: DT_FLOAT
        type: DT_FLOAT
        type: DT_FLOAT
        type: DT_FLOAT
        type: DT_FLOAT
        type: DT_FLOAT
        type: DT_FLOAT
        type: DT_FLOAT
        type: DT_FLOAT
        type: DT_FLOAT
        type: DT_FLOAT
        type: DT_FLOAT
        type: DT_FLOAT
        type: DT_FLOAT
        type: DT_FLOAT
        type: DT_FLOAT
        type: DT_FLOAT
        type: DT_FLOAT
        type: DT_FLOAT
        type: DT_FLOAT
        type: DT_FLOAT
        type: DT_FLOAT
        type: DT_FLOAT
      }
    }
  }
}
node {
  name: "save/Identity"
  op: "Identity"
  input: "save/RestoreV2"
  attr {
    key: "T"
    value {
      type: DT_FLOAT
    }
  }
}
node {
  name: "save/AssignVariableOp"
  op: "AssignVariableOp"
  input: "Adam/beta_1"
  input: "save/Identity"
  attr {
    key: "dtype"
    value {
      type: DT_FLOAT
    }
  }
}
node {
  name: "save/Identity_1"
  op: "Identity"
  input: "save/RestoreV2:1"
  attr {
    key: "T"
    value {
      type: DT_FLOAT
    }
  }
}
node {
  name: "save/AssignVariableOp_1"
  op: "AssignVariableOp"
  input: "Adam/beta_2"
  input: "save/Identity_1"
  attr {
    key: "dtype"
    value {
      type: DT_FLOAT
    }
  }
}
node {
  name: "save/Identity_2"
  op: "Identity"
  input: "save/RestoreV2:2"
  attr {
    key: "T"
    value {
      type: DT_FLOAT
    }
  }
}
node {
  name: "save/AssignVariableOp_2"
  op: "AssignVariableOp"
  input: "Adam/decay"
  input: "save/Identity_2"
  attr {
    key: "dtype"
    value {
      type: DT_FLOAT
    }
  }
}
node {
  name: "save/Identity_3"
  op: "Identity"
  input: "save/RestoreV2:3"
  attr {
    key: "T"
    value {
      type: DT_INT64
    }
  }
}
node {
  name: "save/AssignVariableOp_3"
  op: "AssignVariableOp"
  input: "Adam/iterations"
  input: "save/Identity_3"
  attr {
    key: "dtype"
    value {
      type: DT_INT64
    }
  }
}
node {
  name: "save/Identity_4"
  op: "Identity"
  input: "save/RestoreV2:4"
  attr {
    key: "T"
    value {
      type: DT_FLOAT
    }
  }
}
node {
  name: "save/AssignVariableOp_4"
  op: "AssignVariableOp"
  input: "Adam/lr"
  input: "save/Identity_4"
  attr {
    key: "dtype"
    value {
      type: DT_FLOAT
    }
  }
}
node {
  name: "save/Identity_5"
  op: "Identity"
  input: "save/RestoreV2:5"
  attr {
    key: "T"
    value {
      type: DT_FLOAT
    }
  }
}
node {
  name: "save/AssignVariableOp_5"
  op: "AssignVariableOp"
  input: "conv2d/bias"
  input: "save/Identity_5"
  attr {
    key: "dtype"
    value {
      type: DT_FLOAT
    }
  }
}
node {
  name: "save/Identity_6"
  op: "Identity"
  input: "save/RestoreV2:6"
  attr {
    key: "T"
    value {
      type: DT_FLOAT
    }
  }
}
node {
  name: "save/AssignVariableOp_6"
  op: "AssignVariableOp"
  input: "conv2d/kernel"
  input: "save/Identity_6"
  attr {
    key: "dtype"
    value {
      type: DT_FLOAT
    }
  }
}
node {
  name: "save/Identity_7"
  op: "Identity"
  input: "save/RestoreV2:7"
  attr {
    key: "T"
    value {
      type: DT_FLOAT
    }
  }
}
node {
  name: "save/AssignVariableOp_7"
  op: "AssignVariableOp"
  input: "conv2d_1/bias"
  input: "save/Identity_7"
  attr {
    key: "dtype"
    value {
      type: DT_FLOAT
    }
  }
}
node {
  name: "save/Identity_8"
  op: "Identity"
  input: "save/RestoreV2:8"
  attr {
    key: "T"
    value {
      type: DT_FLOAT
    }
  }
}
node {
  name: "save/AssignVariableOp_8"
  op: "AssignVariableOp"
  input: "conv2d_1/kernel"
  input: "save/Identity_8"
  attr {
    key: "dtype"
    value {
      type: DT_FLOAT
    }
  }
}
node {
  name: "save/Identity_9"
  op: "Identity"
  input: "save/RestoreV2:9"
  attr {
    key: "T"
    value {
      type: DT_FLOAT
    }
  }
}
node {
  name: "save/AssignVariableOp_9"
  op: "AssignVariableOp"
  input: "conv2d_2/bias"
  input: "save/Identity_9"
  attr {
    key: "dtype"
    value {
      type: DT_FLOAT
    }
  }
}
node {
  name: "save/Identity_10"
  op: "Identity"
  input: "save/RestoreV2:10"
  attr {
    key: "T"
    value {
      type: DT_FLOAT
    }
  }
}
node {
  name: "save/AssignVariableOp_10"
  op: "AssignVariableOp"
  input: "conv2d_2/kernel"
  input: "save/Identity_10"
  attr {
    key: "dtype"
    value {
      type: DT_FLOAT
    }
  }
}
node {
  name: "save/Identity_11"
  op: "Identity"
  input: "save/RestoreV2:11"
  attr {
    key: "T"
    value {
      type: DT_FLOAT
    }
  }
}
node {
  name: "save/AssignVariableOp_11"
  op: "AssignVariableOp"
  input: "conv2d_3/bias"
  input: "save/Identity_11"
  attr {
    key: "dtype"
    value {
      type: DT_FLOAT
    }
  }
}
node {
  name: "save/Identity_12"
  op: "Identity"
  input: "save/RestoreV2:12"
  attr {
    key: "T"
    value {
      type: DT_FLOAT
    }
  }
}
node {
  name: "save/AssignVariableOp_12"
  op: "AssignVariableOp"
  input: "conv2d_3/kernel"
  input: "save/Identity_12"
  attr {
    key: "dtype"
    value {
      type: DT_FLOAT
    }
  }
}
node {
  name: "save/Identity_13"
  op: "Identity"
  input: "save/RestoreV2:13"
  attr {
    key: "T"
    value {
      type: DT_FLOAT
    }
  }
}
node {
  name: "save/AssignVariableOp_13"
  op: "AssignVariableOp"
  input: "conv2d_transpose/bias"
  input: "save/Identity_13"
  attr {
    key: "dtype"
    value {
      type: DT_FLOAT
    }
  }
}
node {
  name: "save/Identity_14"
  op: "Identity"
  input: "save/RestoreV2:14"
  attr {
    key: "T"
    value {
      type: DT_FLOAT
    }
  }
}
node {
  name: "save/AssignVariableOp_14"
  op: "AssignVariableOp"
  input: "conv2d_transpose/kernel"
  input: "save/Identity_14"
  attr {
    key: "dtype"
    value {
      type: DT_FLOAT
    }
  }
}
node {
  name: "save/Identity_15"
  op: "Identity"
  input: "save/RestoreV2:15"
  attr {
    key: "T"
    value {
      type: DT_FLOAT
    }
  }
}
node {
  name: "save/AssignVariableOp_15"
  op: "AssignVariableOp"
  input: "conv2d_transpose_1/bias"
  input: "save/Identity_15"
  attr {
    key: "dtype"
    value {
      type: DT_FLOAT
    }
  }
}
node {
  name: "save/Identity_16"
  op: "Identity"
  input: "save/RestoreV2:16"
  attr {
    key: "T"
    value {
      type: DT_FLOAT
    }
  }
}
node {
  name: "save/AssignVariableOp_16"
  op: "AssignVariableOp"
  input: "conv2d_transpose_1/kernel"
  input: "save/Identity_16"
  attr {
    key: "dtype"
    value {
      type: DT_FLOAT
    }
  }
}
node {
  name: "save/Identity_17"
  op: "Identity"
  input: "save/RestoreV2:17"
  attr {
    key: "T"
    value {
      type: DT_FLOAT
    }
  }
}
node {
  name: "save/AssignVariableOp_17"
  op: "AssignVariableOp"
  input: "conv2d_transpose_2/bias"
  input: "save/Identity_17"
  attr {
    key: "dtype"
    value {
      type: DT_FLOAT
    }
  }
}
node {
  name: "save/Identity_18"
  op: "Identity"
  input: "save/RestoreV2:18"
  attr {
    key: "T"
    value {
      type: DT_FLOAT
    }
  }
}
node {
  name: "save/AssignVariableOp_18"
  op: "AssignVariableOp"
  input: "conv2d_transpose_2/kernel"
  input: "save/Identity_18"
  attr {
    key: "dtype"
    value {
      type: DT_FLOAT
    }
  }
}
node {
  name: "save/Identity_19"
  op: "Identity"
  input: "save/RestoreV2:19"
  attr {
    key: "T"
    value {
      type: DT_FLOAT
    }
  }
}
node {
  name: "save/AssignVariableOp_19"
  op: "AssignVariableOp"
  input: "conv2d_transpose_3/bias"
  input: "save/Identity_19"
  attr {
    key: "dtype"
    value {
      type: DT_FLOAT
    }
  }
}
node {
  name: "save/Identity_20"
  op: "Identity"
  input: "save/RestoreV2:20"
  attr {
    key: "T"
    value {
      type: DT_FLOAT
    }
  }
}
node {
  name: "save/AssignVariableOp_20"
  op: "AssignVariableOp"
  input: "conv2d_transpose_3/kernel"
  input: "save/Identity_20"
  attr {
    key: "dtype"
    value {
      type: DT_FLOAT
    }
  }
}
node {
  name: "save/Identity_21"
  op: "Identity"
  input: "save/RestoreV2:21"
  attr {
    key: "T"
    value {
      type: DT_FLOAT
    }
  }
}
node {
  name: "save/AssignVariableOp_21"
  op: "AssignVariableOp"
  input: "training/Adam/Variable"
  input: "save/Identity_21"
  attr {
    key: "dtype"
    value {
      type: DT_FLOAT
    }
  }
}
node {
  name: "save/Identity_22"
  op: "Identity"
  input: "save/RestoreV2:22"
  attr {
    key: "T"
    value {
      type: DT_FLOAT
    }
  }
}
node {
  name: "save/AssignVariableOp_22"
  op: "AssignVariableOp"
  input: "training/Adam/Variable_1"
  input: "save/Identity_22"
  attr {
    key: "dtype"
    value {
      type: DT_FLOAT
    }
  }
}
node {
  name: "save/Identity_23"
  op: "Identity"
  input: "save/RestoreV2:23"
  attr {
    key: "T"
    value {
      type: DT_FLOAT
    }
  }
}
node {
  name: "save/AssignVariableOp_23"
  op: "AssignVariableOp"
  input: "training/Adam/Variable_10"
  input: "save/Identity_23"
  attr {
    key: "dtype"
    value {
      type: DT_FLOAT
    }
  }
}
node {
  name: "save/Identity_24"
  op: "Identity"
  input: "save/RestoreV2:24"
  attr {
    key: "T"
    value {
      type: DT_FLOAT
    }
  }
}
node {
  name: "save/AssignVariableOp_24"
  op: "AssignVariableOp"
  input: "training/Adam/Variable_11"
  input: "save/Identity_24"
  attr {
    key: "dtype"
    value {
      type: DT_FLOAT
    }
  }
}
node {
  name: "save/Identity_25"
  op: "Identity"
  input: "save/RestoreV2:25"
  attr {
    key: "T"
    value {
      type: DT_FLOAT
    }
  }
}
node {
  name: "save/AssignVariableOp_25"
  op: "AssignVariableOp"
  input: "training/Adam/Variable_12"
  input: "save/Identity_25"
  attr {
    key: "dtype"
    value {
      type: DT_FLOAT
    }
  }
}
node {
  name: "save/Identity_26"
  op: "Identity"
  input: "save/RestoreV2:26"
  attr {
    key: "T"
    value {
      type: DT_FLOAT
    }
  }
}
node {
  name: "save/AssignVariableOp_26"
  op: "AssignVariableOp"
  input: "training/Adam/Variable_13"
  input: "save/Identity_26"
  attr {
    key: "dtype"
    value {
      type: DT_FLOAT
    }
  }
}
node {
  name: "save/Identity_27"
  op: "Identity"
  input: "save/RestoreV2:27"
  attr {
    key: "T"
    value {
      type: DT_FLOAT
    }
  }
}
node {
  name: "save/AssignVariableOp_27"
  op: "AssignVariableOp"
  input: "training/Adam/Variable_14"
  input: "save/Identity_27"
  attr {
    key: "dtype"
    value {
      type: DT_FLOAT
    }
  }
}
node {
  name: "save/Identity_28"
  op: "Identity"
  input: "save/RestoreV2:28"
  attr {
    key: "T"
    value {
      type: DT_FLOAT
    }
  }
}
node {
  name: "save/AssignVariableOp_28"
  op: "AssignVariableOp"
  input: "training/Adam/Variable_15"
  input: "save/Identity_28"
  attr {
    key: "dtype"
    value {
      type: DT_FLOAT
    }
  }
}
node {
  name: "save/Identity_29"
  op: "Identity"
  input: "save/RestoreV2:29"
  attr {
    key: "T"
    value {
      type: DT_FLOAT
    }
  }
}
node {
  name: "save/AssignVariableOp_29"
  op: "AssignVariableOp"
  input: "training/Adam/Variable_16"
  input: "save/Identity_29"
  attr {
    key: "dtype"
    value {
      type: DT_FLOAT
    }
  }
}
node {
  name: "save/Identity_30"
  op: "Identity"
  input: "save/RestoreV2:30"
  attr {
    key: "T"
    value {
      type: DT_FLOAT
    }
  }
}
node {
  name: "save/AssignVariableOp_30"
  op: "AssignVariableOp"
  input: "training/Adam/Variable_17"
  input: "save/Identity_30"
  attr {
    key: "dtype"
    value {
      type: DT_FLOAT
    }
  }
}
node {
  name: "save/Identity_31"
  op: "Identity"
  input: "save/RestoreV2:31"
  attr {
    key: "T"
    value {
      type: DT_FLOAT
    }
  }
}
node {
  name: "save/AssignVariableOp_31"
  op: "AssignVariableOp"
  input: "training/Adam/Variable_18"
  input: "save/Identity_31"
  attr {
    key: "dtype"
    value {
      type: DT_FLOAT
    }
  }
}
node {
  name: "save/Identity_32"
  op: "Identity"
  input: "save/RestoreV2:32"
  attr {
    key: "T"
    value {
      type: DT_FLOAT
    }
  }
}
node {
  name: "save/AssignVariableOp_32"
  op: "AssignVariableOp"
  input: "training/Adam/Variable_19"
  input: "save/Identity_32"
  attr {
    key: "dtype"
    value {
      type: DT_FLOAT
    }
  }
}
node {
  name: "save/Identity_33"
  op: "Identity"
  input: "save/RestoreV2:33"
  attr {
    key: "T"
    value {
      type: DT_FLOAT
    }
  }
}
node {
  name: "save/AssignVariableOp_33"
  op: "AssignVariableOp"
  input: "training/Adam/Variable_2"
  input: "save/Identity_33"
  attr {
    key: "dtype"
    value {
      type: DT_FLOAT
    }
  }
}
node {
  name: "save/Identity_34"
  op: "Identity"
  input: "save/RestoreV2:34"
  attr {
    key: "T"
    value {
      type: DT_FLOAT
    }
  }
}
node {
  name: "save/AssignVariableOp_34"
  op: "AssignVariableOp"
  input: "training/Adam/Variable_20"
  input: "save/Identity_34"
  attr {
    key: "dtype"
    value {
      type: DT_FLOAT
    }
  }
}
node {
  name: "save/Identity_35"
  op: "Identity"
  input: "save/RestoreV2:35"
  attr {
    key: "T"
    value {
      type: DT_FLOAT
    }
  }
}
node {
  name: "save/AssignVariableOp_35"
  op: "AssignVariableOp"
  input: "training/Adam/Variable_21"
  input: "save/Identity_35"
  attr {
    key: "dtype"
    value {
      type: DT_FLOAT
    }
  }
}
node {
  name: "save/Identity_36"
  op: "Identity"
  input: "save/RestoreV2:36"
  attr {
    key: "T"
    value {
      type: DT_FLOAT
    }
  }
}
node {
  name: "save/AssignVariableOp_36"
  op: "AssignVariableOp"
  input: "training/Adam/Variable_22"
  input: "save/Identity_36"
  attr {
    key: "dtype"
    value {
      type: DT_FLOAT
    }
  }
}
node {
  name: "save/Identity_37"
  op: "Identity"
  input: "save/RestoreV2:37"
  attr {
    key: "T"
    value {
      type: DT_FLOAT
    }
  }
}
node {
  name: "save/AssignVariableOp_37"
  op: "AssignVariableOp"
  input: "training/Adam/Variable_23"
  input: "save/Identity_37"
  attr {
    key: "dtype"
    value {
      type: DT_FLOAT
    }
  }
}
node {
  name: "save/Identity_38"
  op: "Identity"
  input: "save/RestoreV2:38"
  attr {
    key: "T"
    value {
      type: DT_FLOAT
    }
  }
}
node {
  name: "save/AssignVariableOp_38"
  op: "AssignVariableOp"
  input: "training/Adam/Variable_24"
  input: "save/Identity_38"
  attr {
    key: "dtype"
    value {
      type: DT_FLOAT
    }
  }
}
node {
  name: "save/Identity_39"
  op: "Identity"
  input: "save/RestoreV2:39"
  attr {
    key: "T"
    value {
      type: DT_FLOAT
    }
  }
}
node {
  name: "save/AssignVariableOp_39"
  op: "AssignVariableOp"
  input: "training/Adam/Variable_25"
  input: "save/Identity_39"
  attr {
    key: "dtype"
    value {
      type: DT_FLOAT
    }
  }
}
node {
  name: "save/Identity_40"
  op: "Identity"
  input: "save/RestoreV2:40"
  attr {
    key: "T"
    value {
      type: DT_FLOAT
    }
  }
}
node {
  name: "save/AssignVariableOp_40"
  op: "AssignVariableOp"
  input: "training/Adam/Variable_26"
  input: "save/Identity_40"
  attr {
    key: "dtype"
    value {
      type: DT_FLOAT
    }
  }
}
node {
  name: "save/Identity_41"
  op: "Identity"
  input: "save/RestoreV2:41"
  attr {
    key: "T"
    value {
      type: DT_FLOAT
    }
  }
}
node {
  name: "save/AssignVariableOp_41"
  op: "AssignVariableOp"
  input: "training/Adam/Variable_27"
  input: "save/Identity_41"
  attr {
    key: "dtype"
    value {
      type: DT_FLOAT
    }
  }
}
node {
  name: "save/Identity_42"
  op: "Identity"
  input: "save/RestoreV2:42"
  attr {
    key: "T"
    value {
      type: DT_FLOAT
    }
  }
}
node {
  name: "save/AssignVariableOp_42"
  op: "AssignVariableOp"
  input: "training/Adam/Variable_28"
  input: "save/Identity_42"
  attr {
    key: "dtype"
    value {
      type: DT_FLOAT
    }
  }
}
node {
  name: "save/Identity_43"
  op: "Identity"
  input: "save/RestoreV2:43"
  attr {
    key: "T"
    value {
      type: DT_FLOAT
    }
  }
}
node {
  name: "save/AssignVariableOp_43"
  op: "AssignVariableOp"
  input: "training/Adam/Variable_29"
  input: "save/Identity_43"
  attr {
    key: "dtype"
    value {
      type: DT_FLOAT
    }
  }
}
node {
  name: "save/Identity_44"
  op: "Identity"
  input: "save/RestoreV2:44"
  attr {
    key: "T"
    value {
      type: DT_FLOAT
    }
  }
}
node {
  name: "save/AssignVariableOp_44"
  op: "AssignVariableOp"
  input: "training/Adam/Variable_3"
  input: "save/Identity_44"
  attr {
    key: "dtype"
    value {
      type: DT_FLOAT
    }
  }
}
node {
  name: "save/Identity_45"
  op: "Identity"
  input: "save/RestoreV2:45"
  attr {
    key: "T"
    value {
      type: DT_FLOAT
    }
  }
}
node {
  name: "save/AssignVariableOp_45"
  op: "AssignVariableOp"
  input: "training/Adam/Variable_30"
  input: "save/Identity_45"
  attr {
    key: "dtype"
    value {
      type: DT_FLOAT
    }
  }
}
node {
  name: "save/Identity_46"
  op: "Identity"
  input: "save/RestoreV2:46"
  attr {
    key: "T"
    value {
      type: DT_FLOAT
    }
  }
}
node {
  name: "save/AssignVariableOp_46"
  op: "AssignVariableOp"
  input: "training/Adam/Variable_31"
  input: "save/Identity_46"
  attr {
    key: "dtype"
    value {
      type: DT_FLOAT
    }
  }
}
node {
  name: "save/Identity_47"
  op: "Identity"
  input: "save/RestoreV2:47"
  attr {
    key: "T"
    value {
      type: DT_FLOAT
    }
  }
}
node {
  name: "save/AssignVariableOp_47"
  op: "AssignVariableOp"
  input: "training/Adam/Variable_32"
  input: "save/Identity_47"
  attr {
    key: "dtype"
    value {
      type: DT_FLOAT
    }
  }
}
node {
  name: "save/Identity_48"
  op: "Identity"
  input: "save/RestoreV2:48"
  attr {
    key: "T"
    value {
      type: DT_FLOAT
    }
  }
}
node {
  name: "save/AssignVariableOp_48"
  op: "AssignVariableOp"
  input: "training/Adam/Variable_33"
  input: "save/Identity_48"
  attr {
    key: "dtype"
    value {
      type: DT_FLOAT
    }
  }
}
node {
  name: "save/Identity_49"
  op: "Identity"
  input: "save/RestoreV2:49"
  attr {
    key: "T"
    value {
      type: DT_FLOAT
    }
  }
}
node {
  name: "save/AssignVariableOp_49"
  op: "AssignVariableOp"
  input: "training/Adam/Variable_34"
  input: "save/Identity_49"
  attr {
    key: "dtype"
    value {
      type: DT_FLOAT
    }
  }
}
node {
  name: "save/Identity_50"
  op: "Identity"
  input: "save/RestoreV2:50"
  attr {
    key: "T"
    value {
      type: DT_FLOAT
    }
  }
}
node {
  name: "save/AssignVariableOp_50"
  op: "AssignVariableOp"
  input: "training/Adam/Variable_35"
  input: "save/Identity_50"
  attr {
    key: "dtype"
    value {
      type: DT_FLOAT
    }
  }
}
node {
  name: "save/Identity_51"
  op: "Identity"
  input: "save/RestoreV2:51"
  attr {
    key: "T"
    value {
      type: DT_FLOAT
    }
  }
}
node {
  name: "save/AssignVariableOp_51"
  op: "AssignVariableOp"
  input: "training/Adam/Variable_36"
  input: "save/Identity_51"
  attr {
    key: "dtype"
    value {
      type: DT_FLOAT
    }
  }
}
node {
  name: "save/Identity_52"
  op: "Identity"
  input: "save/RestoreV2:52"
  attr {
    key: "T"
    value {
      type: DT_FLOAT
    }
  }
}
node {
  name: "save/AssignVariableOp_52"
  op: "AssignVariableOp"
  input: "training/Adam/Variable_37"
  input: "save/Identity_52"
  attr {
    key: "dtype"
    value {
      type: DT_FLOAT
    }
  }
}
node {
  name: "save/Identity_53"
  op: "Identity"
  input: "save/RestoreV2:53"
  attr {
    key: "T"
    value {
      type: DT_FLOAT
    }
  }
}
node {
  name: "save/AssignVariableOp_53"
  op: "AssignVariableOp"
  input: "training/Adam/Variable_38"
  input: "save/Identity_53"
  attr {
    key: "dtype"
    value {
      type: DT_FLOAT
    }
  }
}
node {
  name: "save/Identity_54"
  op: "Identity"
  input: "save/RestoreV2:54"
  attr {
    key: "T"
    value {
      type: DT_FLOAT
    }
  }
}
node {
  name: "save/AssignVariableOp_54"
  op: "AssignVariableOp"
  input: "training/Adam/Variable_39"
  input: "save/Identity_54"
  attr {
    key: "dtype"
    value {
      type: DT_FLOAT
    }
  }
}
node {
  name: "save/Identity_55"
  op: "Identity"
  input: "save/RestoreV2:55"
  attr {
    key: "T"
    value {
      type: DT_FLOAT
    }
  }
}
node {
  name: "save/AssignVariableOp_55"
  op: "AssignVariableOp"
  input: "training/Adam/Variable_4"
  input: "save/Identity_55"
  attr {
    key: "dtype"
    value {
      type: DT_FLOAT
    }
  }
}
node {
  name: "save/Identity_56"
  op: "Identity"
  input: "save/RestoreV2:56"
  attr {
    key: "T"
    value {
      type: DT_FLOAT
    }
  }
}
node {
  name: "save/AssignVariableOp_56"
  op: "AssignVariableOp"
  input: "training/Adam/Variable_40"
  input: "save/Identity_56"
  attr {
    key: "dtype"
    value {
      type: DT_FLOAT
    }
  }
}
node {
  name: "save/Identity_57"
  op: "Identity"
  input: "save/RestoreV2:57"
  attr {
    key: "T"
    value {
      type: DT_FLOAT
    }
  }
}
node {
  name: "save/AssignVariableOp_57"
  op: "AssignVariableOp"
  input: "training/Adam/Variable_41"
  input: "save/Identity_57"
  attr {
    key: "dtype"
    value {
      type: DT_FLOAT
    }
  }
}
node {
  name: "save/Identity_58"
  op: "Identity"
  input: "save/RestoreV2:58"
  attr {
    key: "T"
    value {
      type: DT_FLOAT
    }
  }
}
node {
  name: "save/AssignVariableOp_58"
  op: "AssignVariableOp"
  input: "training/Adam/Variable_42"
  input: "save/Identity_58"
  attr {
    key: "dtype"
    value {
      type: DT_FLOAT
    }
  }
}
node {
  name: "save/Identity_59"
  op: "Identity"
  input: "save/RestoreV2:59"
  attr {
    key: "T"
    value {
      type: DT_FLOAT
    }
  }
}
node {
  name: "save/AssignVariableOp_59"
  op: "AssignVariableOp"
  input: "training/Adam/Variable_43"
  input: "save/Identity_59"
  attr {
    key: "dtype"
    value {
      type: DT_FLOAT
    }
  }
}
node {
  name: "save/Identity_60"
  op: "Identity"
  input: "save/RestoreV2:60"
  attr {
    key: "T"
    value {
      type: DT_FLOAT
    }
  }
}
node {
  name: "save/AssignVariableOp_60"
  op: "AssignVariableOp"
  input: "training/Adam/Variable_44"
  input: "save/Identity_60"
  attr {
    key: "dtype"
    value {
      type: DT_FLOAT
    }
  }
}
node {
  name: "save/Identity_61"
  op: "Identity"
  input: "save/RestoreV2:61"
  attr {
    key: "T"
    value {
      type: DT_FLOAT
    }
  }
}
node {
  name: "save/AssignVariableOp_61"
  op: "AssignVariableOp"
  input: "training/Adam/Variable_45"
  input: "save/Identity_61"
  attr {
    key: "dtype"
    value {
      type: DT_FLOAT
    }
  }
}
node {
  name: "save/Identity_62"
  op: "Identity"
  input: "save/RestoreV2:62"
  attr {
    key: "T"
    value {
      type: DT_FLOAT
    }
  }
}
node {
  name: "save/AssignVariableOp_62"
  op: "AssignVariableOp"
  input: "training/Adam/Variable_46"
  input: "save/Identity_62"
  attr {
    key: "dtype"
    value {
      type: DT_FLOAT
    }
  }
}
node {
  name: "save/Identity_63"
  op: "Identity"
  input: "save/RestoreV2:63"
  attr {
    key: "T"
    value {
      type: DT_FLOAT
    }
  }
}
node {
  name: "save/AssignVariableOp_63"
  op: "AssignVariableOp"
  input: "training/Adam/Variable_47"
  input: "save/Identity_63"
  attr {
    key: "dtype"
    value {
      type: DT_FLOAT
    }
  }
}
node {
  name: "save/Identity_64"
  op: "Identity"
  input: "save/RestoreV2:64"
  attr {
    key: "T"
    value {
      type: DT_FLOAT
    }
  }
}
node {
  name: "save/AssignVariableOp_64"
  op: "AssignVariableOp"
  input: "training/Adam/Variable_5"
  input: "save/Identity_64"
  attr {
    key: "dtype"
    value {
      type: DT_FLOAT
    }
  }
}
node {
  name: "save/Identity_65"
  op: "Identity"
  input: "save/RestoreV2:65"
  attr {
    key: "T"
    value {
      type: DT_FLOAT
    }
  }
}
node {
  name: "save/AssignVariableOp_65"
  op: "AssignVariableOp"
  input: "training/Adam/Variable_6"
  input: "save/Identity_65"
  attr {
    key: "dtype"
    value {
      type: DT_FLOAT
    }
  }
}
node {
  name: "save/Identity_66"
  op: "Identity"
  input: "save/RestoreV2:66"
  attr {
    key: "T"
    value {
      type: DT_FLOAT
    }
  }
}
node {
  name: "save/AssignVariableOp_66"
  op: "AssignVariableOp"
  input: "training/Adam/Variable_7"
  input: "save/Identity_66"
  attr {
    key: "dtype"
    value {
      type: DT_FLOAT
    }
  }
}
node {
  name: "save/Identity_67"
  op: "Identity"
  input: "save/RestoreV2:67"
  attr {
    key: "T"
    value {
      type: DT_FLOAT
    }
  }
}
node {
  name: "save/AssignVariableOp_67"
  op: "AssignVariableOp"
  input: "training/Adam/Variable_8"
  input: "save/Identity_67"
  attr {
    key: "dtype"
    value {
      type: DT_FLOAT
    }
  }
}
node {
  name: "save/Identity_68"
  op: "Identity"
  input: "save/RestoreV2:68"
  attr {
    key: "T"
    value {
      type: DT_FLOAT
    }
  }
}
node {
  name: "save/AssignVariableOp_68"
  op: "AssignVariableOp"
  input: "training/Adam/Variable_9"
  input: "save/Identity_68"
  attr {
    key: "dtype"
    value {
      type: DT_FLOAT
    }
  }
}
node {
  name: "save/restore_all"
  op: "NoOp"
  input: "^save/AssignVariableOp"
  input: "^save/AssignVariableOp_1"
  input: "^save/AssignVariableOp_10"
  input: "^save/AssignVariableOp_11"
  input: "^save/AssignVariableOp_12"
  input: "^save/AssignVariableOp_13"
  input: "^save/AssignVariableOp_14"
  input: "^save/AssignVariableOp_15"
  input: "^save/AssignVariableOp_16"
  input: "^save/AssignVariableOp_17"
  input: "^save/AssignVariableOp_18"
  input: "^save/AssignVariableOp_19"
  input: "^save/AssignVariableOp_2"
  input: "^save/AssignVariableOp_20"
  input: "^save/AssignVariableOp_21"
  input: "^save/AssignVariableOp_22"
  input: "^save/AssignVariableOp_23"
  input: "^save/AssignVariableOp_24"
  input: "^save/AssignVariableOp_25"
  input: "^save/AssignVariableOp_26"
  input: "^save/AssignVariableOp_27"
  input: "^save/AssignVariableOp_28"
  input: "^save/AssignVariableOp_29"
  input: "^save/AssignVariableOp_3"
  input: "^save/AssignVariableOp_30"
  input: "^save/AssignVariableOp_31"
  input: "^save/AssignVariableOp_32"
  input: "^save/AssignVariableOp_33"
  input: "^save/AssignVariableOp_34"
  input: "^save/AssignVariableOp_35"
  input: "^save/AssignVariableOp_36"
  input: "^save/AssignVariableOp_37"
  input: "^save/AssignVariableOp_38"
  input: "^save/AssignVariableOp_39"
  input: "^save/AssignVariableOp_4"
  input: "^save/AssignVariableOp_40"
  input: "^save/AssignVariableOp_41"
  input: "^save/AssignVariableOp_42"
  input: "^save/AssignVariableOp_43"
  input: "^save/AssignVariableOp_44"
  input: "^save/AssignVariableOp_45"
  input: "^save/AssignVariableOp_46"
  input: "^save/AssignVariableOp_47"
  input: "^save/AssignVariableOp_48"
  input: "^save/AssignVariableOp_49"
  input: "^save/AssignVariableOp_5"
  input: "^save/AssignVariableOp_50"
  input: "^save/AssignVariableOp_51"
  input: "^save/AssignVariableOp_52"
  input: "^save/AssignVariableOp_53"
  input: "^save/AssignVariableOp_54"
  input: "^save/AssignVariableOp_55"
  input: "^save/AssignVariableOp_56"
  input: "^save/AssignVariableOp_57"
  input: "^save/AssignVariableOp_58"
  input: "^save/AssignVariableOp_59"
  input: "^save/AssignVariableOp_6"
  input: "^save/AssignVariableOp_60"
  input: "^save/AssignVariableOp_61"
  input: "^save/AssignVariableOp_62"
  input: "^save/AssignVariableOp_63"
  input: "^save/AssignVariableOp_64"
  input: "^save/AssignVariableOp_65"
  input: "^save/AssignVariableOp_66"
  input: "^save/AssignVariableOp_67"
  input: "^save/AssignVariableOp_68"
  input: "^save/AssignVariableOp_7"
  input: "^save/AssignVariableOp_8"
  input: "^save/AssignVariableOp_9"
}
versions {
  producer: 26
}
