Tensorflow version: 1.9.0
Current Git Commit: b'e53a86d'
Flags:
	data:                 foo.tif
	model_dir:            out/m3/
	batch_size:           32
	optimizer:            adam
	loss:                 mean_squared_error
	steps_per_epoch:      1000
	epochs:               200
	new_model:            None
	shape:                (64, 64, 7)
Loading existing model
_________________________________________________________________
Layer (type)                 Output Shape              Param #   
=================================================================
ae_input (InputLayer)        (None, 64, 64, 7)         0         
_________________________________________________________________
conv2d (Conv2D)              (None, 64, 64, 16)        1024      
_________________________________________________________________
conv2d_1 (Conv2D)            (None, 32, 32, 16)        2320      
_________________________________________________________________
conv2d_2 (Conv2D)            (None, 32, 32, 32)        4640      
_________________________________________________________________
conv2d_3 (Conv2D)            (None, 16, 16, 32)        9248      
_________________________________________________________________
conv2d_4 (Conv2D)            (None, 16, 16, 64)        18496     
_________________________________________________________________
conv2d_5 (Conv2D)            (None, 8, 8, 64)          36928     
_________________________________________________________________
conv2d_6 (Conv2D)            (None, 8, 8, 64)          36928     
_________________________________________________________________
conv2d_transpose (Conv2DTran (None, 16, 16, 64)        36928     
_________________________________________________________________
conv2d_7 (Conv2D)            (None, 16, 16, 32)        18464     
_________________________________________________________________
conv2d_transpose_1 (Conv2DTr (None, 32, 32, 32)        9248      
_________________________________________________________________
conv2d_8 (Conv2D)            (None, 32, 32, 16)        4624      
_________________________________________________________________
conv2d_transpose_2 (Conv2DTr (None, 64, 64, 16)        2320      
_________________________________________________________________
conv2d_9 (Conv2D)            (None, 64, 64, 7)         1015      
=================================================================
Total params: 182,183
Trainable params: 182,183
Non-trainable params: 0
_________________________________________________________________
Epoch 1/200
 - 193s - loss: 4566547.6010 - mean_absolute_error: 1661.9762
Epoch 2/200
 - 175s - loss: 4429760.9871 - mean_absolute_error: 1644.4491
Epoch 3/200
 - 165s - loss: 4497066.6540 - mean_absolute_error: 1664.6258
…
