…
no weights for encoder in /projects/CSC249ADCD01/clouds/output/mod9cnn15-debug/
3 Entering training loop
0 Loading model weights
no weights for decoder in /projects/CSC249ADCD01/clouds/output/mod9cnn15-debug/
no weights for encoder in /projects/CSC249ADCD01/clouds/output/mod9cnn15-debug/
__________________________________________________________________________________________________
Layer (type)                    Output Shape         Param #     Connected to                     
==================================================================================================
decoder_input (InputLayer)      (None, 8, 8, 128)    0                                            
__________________________________________________________________________________________________
conv2d_transpose (Conv2DTranspo (None, 16, 16, 128)  147584      decoder_input[0][0]              
__________________________________________________________________________________________________
leaky_re_lu_9 (LeakyReLU)       (None, 16, 16, 128)  0           conv2d_transpose[0][0]           
__________________________________________________________________________________________________
conv2d_9 (Conv2D)               (None, 16, 16, 128)  147584      leaky_re_lu_9[0][0]              
__________________________________________________________________________________________________
leaky_re_lu_10 (LeakyReLU)      (None, 16, 16, 128)  0           conv2d_9[0][0]                   
__________________________________________________________________________________________________
lambda_4 (Lambda)               (None, 16, 16, 128)  0           leaky_re_lu_10[0][0]             
                                                                 decoder_input[0][0]              
__________________________________________________________________________________________________
batch_normalization_4 (BatchNor (None, 16, 16, 128)  512         lambda_4[0][0]                   
__________________________________________________________________________________________________
conv2d_transpose_1 (Conv2DTrans (None, 32, 32, 64)   73792       batch_normalization_4[0][0]      
__________________________________________________________________________________________________
leaky_re_lu_11 (LeakyReLU)      (None, 32, 32, 64)   0           conv2d_transpose_1[0][0]         
__________________________________________________________________________________________________
conv2d_10 (Conv2D)              (None, 32, 32, 64)   36928       leaky_re_lu_11[0][0]             
__________________________________________________________________________________________________
leaky_re_lu_12 (LeakyReLU)      (None, 32, 32, 64)   0           conv2d_10[0][0]                  
__________________________________________________________________________________________________
lambda_5 (Lambda)               (None, 32, 32, 64)   0           leaky_re_lu_12[0][0]             
                                                                 batch_normalization_4[0][0]      
__________________________________________________________________________________________________
batch_normalization_5 (BatchNor (None, 32, 32, 64)   256         lambda_5[0][0]                   
__________________________________________________________________________________________________
conv2d_transpose_2 (Conv2DTrans (None, 64, 64, 32)   18464       batch_normalization_5[0][0]      
__________________________________________________________________________________________________
leaky_re_lu_13 (LeakyReLU)      (None, 64, 64, 32)   0           conv2d_transpose_2[0][0]         
__________________________________________________________________________________________________
conv2d_11 (Conv2D)              (None, 64, 64, 32)   9248        leaky_re_lu_13[0][0]             
__________________________________________________________________________________________________
leaky_re_lu_14 (LeakyReLU)      (None, 64, 64, 32)   0           conv2d_11[0][0]                  
__________________________________________________________________________________________________
lambda_6 (Lambda)               (None, 64, 64, 32)   0           leaky_re_lu_14[0][0]             
                                                                 batch_normalization_5[0][0]      
__________________________________________________________________________________________________
batch_normalization_6 (BatchNor (None, 64, 64, 32)   128         lambda_6[0][0]                   
__________________________________________________________________________________________________
conv2d_transpose_3 (Conv2DTrans (None, 128, 128, 16) 4624        batch_normalization_6[0][0]      
__________________________________________________________________________________________________
leaky_re_lu_15 (LeakyReLU)      (None, 128, 128, 16) 0           conv2d_transpose_3[0][0]         
__________________________________________________________________________________________________
conv2d_12 (Conv2D)              (None, 128, 128, 16) 2320        leaky_re_lu_15[0][0]             
__________________________________________________________________________________________________
leaky_re_lu_16 (LeakyReLU)      (None, 128, 128, 16) 0           conv2d_12[0][0]                  
__________________________________________________________________________________________________
lambda_7 (Lambda)               (None, 128, 128, 16) 0           leaky_re_lu_16[0][0]             
                                                                 batch_normalization_6[0][0]      
__________________________________________________________________________________________________
batch_normalization_7 (BatchNor (None, 128, 128, 16) 64          lambda_7[0][0]                   
__________________________________________________________________________________________________
reconstructed (Conv2D)          (None, 128, 128, 7)  119         batch_normalization_7[0][0]      
==================================================================================================
Total params: 441,623
Trainable params: 441,143
Non-trainable params: 480
__________________________________________________________________________________________________
__________________________________________________________________________________________________
Layer (type)                    Output Shape         Param #     Connected to                     
==================================================================================================
encoder_input (InputLayer)      (None, 128, 128, 7)  0                                            
__________________________________________________________________________________________________
conv2d (Conv2D)                 (None, 128, 128, 16) 1024        encoder_input[0][0]              
__________________________________________________________________________________________________
leaky_re_lu (LeakyReLU)         (None, 128, 128, 16) 0           conv2d[0][0]                     
__________________________________________________________________________________________________
conv2d_1 (Conv2D)               (None, 64, 64, 16)   2320        leaky_re_lu[0][0]                
__________________________________________________________________________________________________
leaky_re_lu_1 (LeakyReLU)       (None, 64, 64, 16)   0           conv2d_1[0][0]                   
__________________________________________________________________________________________________
conv2d_2 (Conv2D)               (None, 64, 64, 16)   2320        leaky_re_lu_1[0][0]              
__________________________________________________________________________________________________
leaky_re_lu_2 (LeakyReLU)       (None, 64, 64, 16)   0           conv2d_2[0][0]                   
__________________________________________________________________________________________________
lambda (Lambda)                 (None, 64, 64, 16)   0           leaky_re_lu_2[0][0]              
                                                                 leaky_re_lu[0][0]                
__________________________________________________________________________________________________
batch_normalization (BatchNorma (None, 64, 64, 16)   64          lambda[0][0]                     
__________________________________________________________________________________________________
conv2d_3 (Conv2D)               (None, 32, 32, 32)   4640        batch_normalization[0][0]        
__________________________________________________________________________________________________
leaky_re_lu_3 (LeakyReLU)       (None, 32, 32, 32)   0           conv2d_3[0][0]                   
__________________________________________________________________________________________________
conv2d_4 (Conv2D)               (None, 32, 32, 32)   9248        leaky_re_lu_3[0][0]              
__________________________________________________________________________________________________
leaky_re_lu_4 (LeakyReLU)       (None, 32, 32, 32)   0           conv2d_4[0][0]                   
__________________________________________________________________________________________________
lambda_1 (Lambda)               (None, 32, 32, 32)   0           leaky_re_lu_4[0][0]              
                                                                 batch_normalization[0][0]        
__________________________________________________________________________________________________
batch_normalization_1 (BatchNor (None, 32, 32, 32)   128         lambda_1[0][0]                   
__________________________________________________________________________________________________
conv2d_5 (Conv2D)               (None, 16, 16, 64)   18496       batch_normalization_1[0][0]      
__________________________________________________________________________________________________
leaky_re_lu_5 (LeakyReLU)       (None, 16, 16, 64)   0           conv2d_5[0][0]                   
__________________________________________________________________________________________________
conv2d_6 (Conv2D)               (None, 16, 16, 64)   36928       leaky_re_lu_5[0][0]              
__________________________________________________________________________________________________
leaky_re_lu_6 (LeakyReLU)       (None, 16, 16, 64)   0           conv2d_6[0][0]                   
__________________________________________________________________________________________________
lambda_2 (Lambda)               (None, 16, 16, 64)   0           leaky_re_lu_6[0][0]              
                                                                 batch_normalization_1[0][0]      
__________________________________________________________________________________________________
batch_normalization_2 (BatchNor (None, 16, 16, 64)   256         lambda_2[0][0]                   
__________________________________________________________________________________________________
conv2d_7 (Conv2D)               (None, 8, 8, 128)    73856       batch_normalization_2[0][0]      
__________________________________________________________________________________________________
leaky_re_lu_7 (LeakyReLU)       (None, 8, 8, 128)    0           conv2d_7[0][0]                   
__________________________________________________________________________________________________
conv2d_8 (Conv2D)               (None, 8, 8, 128)    147584      leaky_re_lu_7[0][0]              
__________________________________________________________________________________________________
leaky_re_lu_8 (LeakyReLU)       (None, 8, 8, 128)    0           conv2d_8[0][0]                   
__________________________________________________________________________________________________
lambda_3 (Lambda)               (None, 8, 8, 128)    0           leaky_re_lu_8[0][0]              
                                                                 batch_normalization_2[0][0]      
__________________________________________________________________________________________________
batch_normalization_3 (BatchNor (None, 8, 8, 128)    512         lambda_3[0][0]                   
==================================================================================================
Total params: 297,376
Trainable params: 296,896
Non-trainable params: 480
__________________________________________________________________________________________________

0 Entering training loop
3 step <tf.Variable 'global_step:0' shape=() dtype=int64_ref>
…
Parsing Inputs...
no weights for decoder in /projects/CSC249ADCD01/clouds/output/mod9cnn15-debug/
Parsing Inputs...
16 Entering training loop
Parsing Inputs...
Parsing Inputs...
52 Loading model weights
no weights for decoder in /projects/CSC249ADCD01/clouds/output/mod9cnn15-debug/
__________________________________________________________________________________________________
Layer (type)                    Output Shape         Param #     Connected to                     
==================================================================================================
encoder_input (InputLayer)      (None, 128, 128, 7)  0                                            
__________________________________________________________________________________________________
conv2d (Conv2D)                 (None, 128, 128, 16) 1024        encoder_input[0][0]              
__________________________________________________________________________________________________
leaky_re_lu (LeakyReLU)         (None, 128, 128, 16) 0           conv2d[0][0]                     
__________________________________________________________________________________________________
conv2d_1 (Conv2D)               (None, 64, 64, 16)   2320        leaky_re_lu[0][0]                
__________________________________________________________________________________________________
leaky_re_lu_1 (LeakyReLU)       (None, 64, 64, 16)   0           conv2d_1[0][0]                   
__________________________________________________________________________________________________
conv2d_2 (Conv2D)               (None, 64, 64, 16)   2320        leaky_re_lu_1[0][0]              
__________________________________________________________________________________________________
leaky_re_lu_2 (LeakyReLU)       (None, 64, 64, 16)   0           conv2d_2[0][0]                   
__________________________________________________________________________________________________
lambda (Lambda)                 (None, 64, 64, 16)   0           leaky_re_lu_2[0][0]              
                                                                 leaky_re_lu[0][0]                
__________________________________________________________________________________________________
batch_normalization (BatchNorma (None, 64, 64, 16)   64          lambda[0][0]                     
__________________________________________________________________________________________________
conv2d_3 (Conv2D)               (None, 32, 32, 32)   4640        batch_normalization[0][0]        
__________________________________________________________________________________________________
leaky_re_lu_3 (LeakyReLU)       (None, 32, 32, 32)   0           conv2d_3[0][0]                   
__________________________________________________________________________________________________
conv2d_4 (Conv2D)               (None, 32, 32, 32)   9248        leaky_re_lu_3[0][0]              
__________________________________________________________________________________________________
leaky_re_lu_4 (LeakyReLU)       (None, 32, 32, 32)   0           conv2d_4[0][0]                   
__________________________________________________________________________________________________
lambda_1 (Lambda)               (None, 32, 32, 32)   0           leaky_re_lu_4[0][0]              
                                                                 batch_normalization[0][0]        
__________________________________________________________________________________________________
batch_normalization_1 (BatchNor (None, 32, 32, 32)   128         lambda_1[0][0]                   
__________________________________________________________________________________________________
conv2d_5 (Conv2D)               (None, 16, 16, 64)   18496       batch_normalization_1[0][0]      
__________________________________________________________________________________________________
leaky_re_lu_5 (LeakyReLU)       (None, 16, 16, 64)   0           conv2d_5[0][0]                   
__________________________________________________________________________________________________
conv2d_6 (Conv2D)               (None, 16, 16, 64)   36928       leaky_re_lu_5[0][0]              
__________________________________________________________________________________________________
leaky_re_lu_6 (LeakyReLU)       (None, 16, 16, 64)   0           conv2d_6[0][0]                   
__________________________________________________________________________________________________
lambda_2 (Lambda)               (None, 16, 16, 64)   0           leaky_re_lu_6[0][0]              
                                                                 batch_normalization_1[0][0]      
__________________________________________________________________________________________________
batch_normalization_2 (BatchNor (None, 16, 16, 64)   256         lambda_2[0][0]                   
__________________________________________________________________________________________________
conv2d_7 (Conv2D)               (None, 8, 8, 128)    73856       batch_normalization_2[0][0]      
__________________________________________________________________________________________________
leaky_re_lu_7 (LeakyReLU)       (None, 8, 8, 128)    0           conv2d_7[0][0]                   
__________________________________________________________________________________________________
conv2d_8 (Conv2D)               (None, 8, 8, 128)    147584      leaky_re_lu_7[0][0]              
__________________________________________________________________________________________________
leaky_re_lu_8 (LeakyReLU)       (None, 8, 8, 128)    0           conv2d_8[0][0]                   
__________________________________________________________________________________________________
lambda_3 (Lambda)               (None, 8, 8, 128)    0           leaky_re_lu_8[0][0]              
                                                                 batch_normalization_2[0][0]      
__________________________________________________________________________________________________
batch_normalization_3 (BatchNor (None, 8, 8, 128)    512         lambda_3[0][0]                   
==================================================================================================
Total params: 297,376
Trainable params: 296,896
Non-trainable params: 480
__________________________________________________________________________________________________
__________________________________________________________________________________________________
Layer (type)                    Output Shape         Param #     Connected to                     
==================================================================================================
decoder_input (InputLayer)      (None, 8, 8, 128)    0                                            
__________________________________________________________________________________________________
conv2d_transpose (Conv2DTranspo (None, 16, 16, 128)  147584      decoder_input[0][0]              
__________________________________________________________________________________________________
leaky_re_lu_9 (LeakyReLU)       (None, 16, 16, 128)  0           conv2d_transpose[0][0]           
__________________________________________________________________________________________________
conv2d_9 (Conv2D)               (None, 16, 16, 128)  147584      leaky_re_lu_9[0][0]              
__________________________________________________________________________________________________
leaky_re_lu_10 (LeakyReLU)      (None, 16, 16, 128)  0           conv2d_9[0][0]                   
__________________________________________________________________________________________________
lambda_4 (Lambda)               (None, 16, 16, 128)  0           leaky_re_lu_10[0][0]             
                                                                 decoder_input[0][0]              
__________________________________________________________________________________________________
batch_normalization_4 (BatchNor (None, 16, 16, 128)  512         lambda_4[0][0]                   
__________________________________________________________________________________________________
conv2d_transpose_1 (Conv2DTrans (None, 32, 32, 64)   73792       batch_normalization_4[0][0]      
__________________________________________________________________________________________________
leaky_re_lu_11 (LeakyReLU)      (None, 32, 32, 64)   0           conv2d_transpose_1[0][0]         
__________________________________________________________________________________________________
conv2d_10 (Conv2D)              (None, 32, 32, 64)   36928       leaky_re_lu_11[0][0]             
__________________________________________________________________________________________________
leaky_re_lu_12 (LeakyReLU)      (None, 32, 32, 64)   0           conv2d_10[0][0]                  
__________________________________________________________________________________________________
lambda_5 (Lambda)               (None, 32, 32, 64)   0           leaky_re_lu_12[0][0]             
                                                                 batch_normalization_4[0][0]      
__________________________________________________________________________________________________
batch_normalization_5 (BatchNor (None, 32, 32, 64)   256         lambda_5[0][0]                   
__________________________________________________________________________________________________
conv2d_transpose_2 (Conv2DTrans (None, 64, 64, 32)   18464       batch_normalization_5[0][0]      
__________________________________________________________________________________________________
leaky_re_lu_13 (LeakyReLU)      (None, 64, 64, 32)   0           conv2d_transpose_2[0][0]         
__________________________________________________________________________________________________
conv2d_11 (Conv2D)              (None, 64, 64, 32)   9248        leaky_re_lu_13[0][0]             
__________________________________________________________________________________________________
leaky_re_lu_14 (LeakyReLU)      (None, 64, 64, 32)   0           conv2d_11[0][0]                  
__________________________________________________________________________________________________
lambda_6 (Lambda)               (None, 64, 64, 32)   0           leaky_re_lu_14[0][0]             
                                                                 batch_normalization_5[0][0]      
__________________________________________________________________________________________________
batch_normalization_6 (BatchNor (None, 64, 64, 32)   128         lambda_6[0][0]                   
__________________________________________________________________________________________________
conv2d_transpose_3 (Conv2DTrans (None, 128, 128, 16) 4624        batch_normalization_6[0][0]      
__________________________________________________________________________________________________
leaky_re_lu_15 (LeakyReLU)      (None, 128, 128, 16) 0           conv2d_transpose_3[0][0]         
__________________________________________________________________________________________________
conv2d_12 (Conv2D)              (None, 128, 128, 16) 2320        leaky_re_lu_15[0][0]             
__________________________________________________________________________________________________
leaky_re_lu_16 (LeakyReLU)      (None, 128, 128, 16) 0           conv2d_12[0][0]                  
__________________________________________________________________________________________________
lambda_7 (Lambda)               (None, 128, 128, 16) 0           leaky_re_lu_16[0][0]             
                                                                 batch_normalization_6[0][0]      
__________________________________________________________________________________________________
batch_normalization_7 (BatchNor (None, 128, 128, 16) 64          lambda_7[0][0]                   
__________________________________________________________________________________________________
reconstructed (Conv2D)          (None, 128, 128, 7)  119         batch_normalization_7[0][0]      
==================================================================================================
Total params: 441,623
Trainable params: 441,143
Non-trainable params: 480
__________________________________________________________________________________________________

0 Entering training loop
Parsing Inputs...
44 Loading model weights
no weights for encoder in /projects/CSC249ADCD01/clouds/output/mod9cnn15-debug/
…
